models/trained/lstm_forecaster.pth (torch, 873679 bytes, 11 tensors)

lstm.weight_ih_l0 f4 [512, 20]
0	0xbc32b379	-0.010907047
1	0x3dc57d5c	0.09643051
2	0x3dbb3e08	0.09142691
3	0xbd31809d	-0.043335546
4	0xbced355b	-0.028956106
5	0x3ce7f47f	0.028314827
6	0x3cc4788a	0.023983259
7	0xbd21337f	-0.03935575
8	0xbc9cfa57	-0.01916234
9	0x3e07918a	0.13239112
10	0xbd589466	-0.0528759
11	0x3d7e35b7	0.062062945
12	0x3da54b39	0.08070988
13	0x3da13d4c	0.078730196
14	0xbd81c688	-0.06336695
15	0x3d3228d1	0.043495957
16	0x3d996545	0.07490019
17	0xbde18504	-0.11011699
18	0xbda14153	-0.07873788
19	0xbcebf0e3	-0.028801387
20	0xbbef8a6f	-0.0073102037
21	0x3d15ba93	0.036554884
22	0xbde6752f	-0.1125282
23	0xbc870710	-0.01648286
24	0x3c8cf7c3	0.017207986
25	0x3d76251b	0.06009398
26	0x3ceb4a01	0.028721811
27	0x3dbab48b	0.09116467
28	0xbd856825	-0.065140046
29	0xbd62eb64	-0.055400267
30	0x3da0a2e9	0.07843573
31	0x3d9d073e	0.07667397
32	0xbc8ad0db	-0.016945293
33	0x3d3f1a42	0.0466559
34	0x3d4a01b8	0.049318045
35	0x3b137d72	0.002250519
36	0x39cf28b2	0.00039512437
37	0xbd496f78	-0.04917857
38	0xbd78305b	-0.06059299
39	0xbd0e25b6	-0.034703933
40	0xbd1e4fa6	-0.038650177
41	0xbd839248	-0.06424385
42	0x3dca44b6	0.09876387
43	0xbe06b445	-0.13154705
44	0xbcc7beb1	-0.024382921
45	0x3ce2bdad	0.027678335
46	0x3c5d2517	0.013497612
47	0x3d0c264c	0.03421621
48	0x3caba434	0.020952322
49	0x3e149a88	0.14512074
50	0xbde87165	-0.11349753
51	0xbd2c4654	-0.042059258
52	0xbdd6ea58	-0.10493916
53	0x3ddaf159	0.10690565
54	0xbd1edc9c	-0.03878461
55	0xbcf19532	-0.029490087
56	0xbdaa485a	-0.08314581
57	0xbdd6059e	-0.1045029
58	0x3cbdde76	0.023177367
59	0x3e0291d5	0.12750943
60	0xbc12ac6c	-0.008952241
61	0xbe0ccf4c	-0.13750952
62	0xbdacbb1f	-0.08434128
63	0x3cb8f06e	0.022575583
64	0x3d56bb48	0.0524247
65	0x3c832b86	0.016011965
66	0x3d23d206	0.039995216
67	0x3dec68dd	0.115434386
68	0xbdb03c78	-0.086052835
69	0x3d6a7cd9	0.05724797
70	0xbd0cf3d1	-0.03441221
71	0xbd86685b	-0.06562873
72	0xbb5f3a57	-0.0034061873
73	0x3d80e18f	0.06293022
74	0xbd86dd0b	-0.06585129
75	0xbded7933	-0.115953825
76	0x3dd8ee98	0.10592383
77	0x3caee2a2	0.021348301
78	0xbde156d0	-0.11002886
79	0xb9a6473a	-0.00031715055
80	0xbcf50778	-0.029910788
81	0xbcb06257	-0.021531267
82	0xbc0ebe17	-0.008712313
83	0xbc572757	-0.013131938
84	0x3da377b4	0.07981816
85	0x3dae1b1a	0.08501263
86	0xbc9b65a4	-0.018969364
87	0xbda225a0	-0.07917333
88	0x3d5a2104	0.053254142
89	0xbe0a282c	-0.13491887
90	0x3d036806	0.032081626
91	0x3e027f61	0.12743904
92	0xbc845c1d	-0.016157204
93	0xbd35e52a	-0.044408
94	0x3d07c93e	0.033150904
95	0xbcd549ee	-0.026036229
96	0xbc83c7e7	-0.016086532
97	0x3c112613	0.008859175
98	0x3bb346ee	0.005471102
99	0xbb8fa576	-0.004383738
100	0x3d43e397	0.04782447
101	0xb9ee3684	-0.00045435515
102	0x3d8106e4	0.063001424
103	0xbc316cee	-0.0108291935
104	0x3c372060	0.011177152
105	0xbc80a9de	-0.015705999
106	0x3d423902	0.047417648
107	0xbd6f03cc	-0.05835323
108	0xbe3bdee6	-0.18346748
109	0x3dfba16a	0.12286647
110	0x3dc61916	0.096727535
111	0xbdf4fdce	-0.11962472
112	0xbdc30117	-0.09521692
113	0x3cb0c5fc	0.021578781
114	0xbe03a172	-0.12854555
115	0x3ca38d4e	0.01996484
116	0xbd3b66a0	-0.045752168
117	0xbd8a7440	-0.06760454
118	0xbd3d9b1c	-0.046290502
119	0x3dd505f2	0.104015246
120	0x3dcfd985	0.101489104
121	0x3d3f30ce	0.046677403
122	0x3c122551	0.00892003
123	0x3de75598	0.112956226
124	0x3d4e60d8	0.050385326
125	0xbdff0f72	-0.12454118
126	0xbca50d57	-0.020147962
127	0x3cbd27dc	0.023090295
128	0xbcdfbd86	-0.027312052
129	0xbdfdd894	-0.123948246
130	0xbde4cd2f	-0.11171948
131	0xbda9b2f6	-0.08286087
132	0x3cfab86c	0.030605517
133	0x3db50ab3	0.08839931
134	0xbd048db6	-0.03236171
135	0xbdb14ccc	-0.08657226
136	0x3d1b2b2c	0.03788297
137	0x3c59c2f6	0.013291111
138	0x3da2faca	0.079579905
139	0xbd81e33b	-0.06342169
140	0xbdd5f48a	-0.10447033
141	0xbcce807c	-0.02520775
142	0xbdacbf8c	-0.08434972
143	0xbe0d7b0e	-0.13816473
144	0x3d85ad82	0.065272346
145	0xbda0dd09	-0.07854659
146	0xbdb0f6ae	-0.086408004
147	0xbd9690ae	-0.07351814
148	0xbd637a12	-0.055536337
149	0x3d4bba8d	0.049738456
150	0xbd59d2f5	-0.0531797
151	0x3dfe3129	0.1241172
152	0xbcd0c987	-0.02548672
153	0xbd66529b	-0.056231122
154	0xbc819559	-0.015818285
155	0xbbe24642	-0.006905348
156	0xbdcbcc73	-0.09951105
157	0xbcd5bb7b	-0.026090374
158	0xbd89cc60	-0.067284346
159	0xbc13d4af	-0.009022876
160	0x3d418c62	0.04725302
161	0x3e1c2caa	0.15251413
162	0x3cba8799	0.022769736
163	0x3c974856	0.01846711
164	0xbd5e3d85	-0.05425789
165	0xbd01ff9b	-0.031737905
166	0x3cc60680	0.024173021
167	0xbcc128e6	-0.023579072
168	0x3de19373	0.11014452
169	0xbdb778a6	-0.08958559
170	0x3e1dade8	0.15398371
171	0x3c1be507	0.009515054
172	0xbd51ec59	-0.05125079
173	0xbc9d159c	-0.019175343
174	0x3d2bc4c6	0.041935705
175	0xbaa63588	-0.0012680748
176	0x3e030343	0.12794213
177	0x3d5a5b11	0.053309504
178	0x3b104146	0.0022011562
179	0x3d2288c6	0.03968122
180	0x3ceaf503	0.028681284
181	0xbd1bdb65	-0.038051028
182	0x3cb8294f	0.022480635
183	0xbd88e463	-0.06684186
184	0x3d72aca6	0.05924668
185	0xbc8ab5a4	-0.016932316
186	0x3c28c3a4	0.010300551
187	0xbd952e33	-0.072842024
188	0x3d798094	0.060913637
189	0x3d37ff43	0.04492117
190	0x3cfec0cc	0.031097792
191	0x3cdda218	0.027054831
192	0x3cf360ba	0.029709209
193	0x3d24440e	0.040103965
194	0xbd007f87	-0.03137162
195	0xbd515dfe	-0.05111503
196	0x3dd6cd30	0.10488355
197	0xbe0e47b3	-0.13894539
198	0xbdac0fd1	-0.08401454
199	0x3dac4329	0.08411247
200	0xbd8f4398	-0.06995314
201	0x3de1dae9	0.11028082
202	0xbe06a065	-0.13147123
203	0x3c35dcf9	0.011100047
204	0xbd0c7781	-0.034293655
205	0x3d38eb61	0.04514635
206	0xbd1a959a	-0.037740327
207	0x3d807d02	0.06273843
208	0xbd0e8333	-0.03479309
209	0x3b3fba49	0.0029255322
210	0x3d2b1e8c	0.04177718
211	0x3c8717e9	0.016490893
212	0x3dd12b09	0.102132864
213	0xbd904f47	-0.07046371
214	0x3d192ecb	0.03739814
215	0x3be6c72e	0.007042787
216	0x3b95c53b	0.004570631
217	0x3d01baae	0.031672172
218	0xbd781533	-0.060567092
219	0x3c34ee2b	0.011043112
220	0x3cac1e62	0.021010581
221	0x3cd402ce	0.025880244
222	0x3d185550	0.037190735
223	0xbdd74a86	-0.10512261
224	0x3d8f7410	0.07004559
225	0xbd9a5b56	-0.07536952
226	0xbcf1fda2	-0.029539887
227	0xbd5b718b	-0.05357508
228	0xbcad4eba	-0.021155704
229	0x3d815582	0.063151374
230	0xbc128137	-0.00894194
231	0xbdedb756	-0.11607234
232	0x3ddbfe67	0.10741883
233	0x3cd7a25b	0.026322534
234	0x3cce350b	0.025171777
235	0x3c7c6aac	0.015406292
236	0xbda89ab2	-0.08232631
237	0x3d2490c5	0.040177125
238	0xbe062610	-0.13100457
239	0x3a9e4ba4	0.0012076986
240	0xbe12efc7	-0.1434928
241	0x3d262164	0.040559188
242	0x3db08219	0.08618564
243	0xbd7c7d79	-0.061643098
244	0xbdae0531	-0.08497084
245	0xbd2e2796	-0.04251822
246	0xbd97c0c4	-0.07409814
247	0x3a0a76df	0.00052819954
248	0x3d93f115	0.07223717
249	0x3de851e1	0.11343742
250	0x3dde71cc	0.10861549
251	0x3cd3a3be	0.025834914
252	0x3ce731b5	0.028221944
253	0xbcccafac	-0.02498611
254	0xbdf03b97	-0.11730116
255	0xbde81ff3	-0.11334219

lstm.weight_hh_l0 f4 [512, 128]
0	0xbdc74a64	-0.09730986
1	0x3c883086	0.0166247
2	0xbd71cdf4	-0.059034303
3	0xbd925949	-0.07145936
4	0x3dba2c09	0.0909043
5	0x3cbfc1ce	0.023407843
6	0xbdb7f0d6	-0.08981483
7	0xbc98a431	-0.01863298
8	0x3e073dda	0.13207188
9	0x3d9433f3	0.07236471
10	0x3c7f87e3	0.015596363
11	0xbd8dbcdf	-0.0692079
12	0xbd23dd9a	-0.040006258
13	0xbac93310	-0.0015350301
14	0xbd8e9a7d	-0.0696306
15	0xbdf66cc0	-0.12032461
16	0xbbdee53c	-0.006802229
17	0xbd9c09ae	-0.07619034
18	0x3c728b30	0.014803693
19	0x3c6d2449	0.014473983
20	0xbde06943	-0.10957577
21	0x3d8e18f6	0.06938355
22	0x3dd8123e	0.105503544
23	0xbdcb96d9	-0.09940881
24	0xbd5bc8f3	-0.053658437
25	0x3d57a144	0.05264403
26	0x3db9276e	0.09040724
27	0x3d0af9b9	0.03392956
28	0x3ddbd23a	0.10733457
29	0x3cda3726	0.026637625
30	0x3d4cf725	0.050040383
31	0x3bd5e419	0.0065274355
32	0xbd2004ed	-0.039067198
33	0xbd6736f8	-0.056448907
34	0xbddb297c	-0.10701272
35	0xbc39bcea	-0.0113365445
36	0x3c4835cf	0.01221986
37	0xbce590ae	-0.02802309
38	0x3d8b6649	0.06806619
39	0x3e04509f	0.1292138
40	0xbcd674c8	-0.026178733
41	0xbdcdbd97	-0.10045927
42	0xbe06a9a8	-0.13150656
43	0xbbb6353c	-0.0055605453
44	0xbdfa8ff8	-0.12234491
45	0x3cbf6dd4	0.0233678
46	0x3d580b77	0.05274531
47	0xbdea4e8a	-0.114407614
48	0xbbccd48a	-0.0062509226
49	0x3dcd33f1	0.10019673
50	0x3cdbb641	0.026820304
51	0x3dd075e7	0.10178738
52	0x3d9f4ada	0.07777949
53	0xbc1b0222	-0.009460958
54	0x3c45bf9a	0.012069607
55	0x3d9ae39e	0.07562946
56	0xbde9960a	-0.11405571
57	0x3e081407	0.1328889
58	0xbe08edf4	-0.13372022
59	0x3b8a8513	0.0042272895
60	0xbd981fcd	-0.074279405
61	0x3e071ae1	0.13193847
62	0x3c0dcb0c	0.008654367
63	0xbc9af589	-0.018915908
64	0xbdd26570	-0.10273254
65	0xbdff85bf	-0.12476682
66	0x3cc80d53	0.024420416
67	0xbc9765eb	-0.018481215
68	0xbc9f3c4d	-0.019437933
69	0xbcbc4ee4	-0.022986837
70	0xbb0b6400	-0.0021269321
71	0x3dd5ee09	0.10445792
72	0xbd84e666	-0.064892575
73	0x3d7f1988	0.062280208
74	0x3de376b5	0.11106626
75	0xbc549942	-0.012975993
76	0x3d2cfb41	0.042231802
77	0xbd800ef1	-0.0625285
78	0x3d031f7e	0.032012455
79	0xbb2c1c01	-0.0026261809
80	0x3d8cdaff	0.06877708
81	0x3d24f613	0.040273737
82	0x3e06c184	0.13159758
83	0xbd526387	-0.051364448
84	0x3d1f814d	0.03894167
85	0xbd0b51d0	-0.03401357
86	0x3d6d881d	0.057991136
87	0x3d93aa66	0.07210235
88	0x3d384439	0.044986937
89	0x3d9c5bbb	0.07634684
90	0x3c8614da	0.016367365
91	0x3d15645d	0.036472667
92	0xbdcaf783	-0.0991049
93	0xbddf83a5	-0.10913781
94	0xbd1acbf0	-0.037792146
95	0x3ce6e4f8	0.028185353
96	0xbd6fa9af	-0.058511432
97	0x398e9357	0.00027194127
98	0x3ba5f1da	0.0050642313
99	0x3c19294e	0.009348227
100	0x3b653076	0.0034971512
101	0xbd6fe403	-0.05856706
102	0xbcb085e3	-0.021548217
103	0xbcfd7057	-0.030937357
104	0x3b518d3a	0.0031975047
105	0x3b69a868	0.0035653356
106	0xbde8a45a	-0.113594726
107	0x3dd50694	0.10401645
108	0xbd0dffb6	-0.034667693
109	0xbd34f39e	-0.044177644
110	0xbca30496	-0.019899648
111	0xbd9328d9	-0.071855254
112	0xbd767a11	-0.060175005
113	0xbd0d4b15	-0.034495432
114	0x3dc7c47f	0.097542755
115	0xbd85d105	-0.06534008
116	0x3dacd501	0.08439065
117	0x3c587e31	0.01321368
118	0xbcd548be	-0.026035663
119	0x3dfbbd5d	0.122919776
120	0xbd1a7c97	-0.037716474
121	0x3d996001	0.074890144
122	0xbd885803	-0.06657412
123	0xbdde0b8e	-0.10842048
124	0x3cf10aea	0.02942415
125	0xbcd88f1b	-0.026435426
126	0xbc8407d3	-0.016117012
127	0xbce558a2	-0.027996365
128	0xbd9e0cb2	-0.07717265
129	0x3dd26fac	0.10275206
130	0xbd8c9d36	-0.06865923
131	0xbddbd7d6	-0.10734527
132	0xbc82c153	-0.015961325
133	0x3c5dfbd4	0.01354881
134	0x3ba2ba46	0.004966053
135	0x3cd7bfbc	0.026336543
136	0xbd313e34	-0.043272212
137	0x3d96b186	0.07358079
138	0x3d86755e	0.06565355
139	0xbd53c496	-0.05170115
140	0x3d19e920	0.03757584
141	0xbd28b38d	-0.041186858
142	0xbd4abc4c	-0.04949598
143	0x3d3b53ef	0.045734342
144	0xbdd36ac4	-0.10323098
145	0x3d243f7b	0.040099602
146	0x3d205050	0.039139092
147	0xbc7a55f1	-0.015279279
148	0xbdf3b62d	-0.11899982
149	0x3753b4d0	1.2618679e-05
150	0x3d6d209f	0.057892438
151	0xbda0c359	-0.078497596
152	0xbe0697af	-0.131438
153	0x3d1d6a99	0.038431738
154	0xbb4f9fb5	-0.0031680886
155	0xbb82fd69	-0.003997494
156	0x3d5e2149	0.054230962
157	0x3dba6744	0.091017276
158	0x3da713f4	0.08158103
159	0xbdac002f	-0.083984725
160	0xbde9f3eb	-0.11423477
161	0xbddf0496	-0.108895466
162	0xbc7fb085	-0.01560605
163	0x3dfb1d04	0.12261394
164	0x3da9e387	0.082953505
165	0xbc9898bb	-0.018627515
166	0x3dd2d056	0.10293643
167	0x3de54829	0.11195404
168	0xbdf57171	-0.11984528
169	0xbce07a2a	-0.027402002
170	0xbdf5d8ac	-0.120042175
171	0xbda1b479	-0.078957506
172	0xbe0619b8	-0.13095748
173	0x3de6ea30	0.112751365
174	0x3de4876a	0.11158641
175	0xbdce91b1	-0.10086382
176	0xbda68feb	-0.08132919
177	0x3da3d948	0.080004275
178	0x3db2d77e	0.08732508
179	0x3db5d9d8	0.08879441
180	0x3c594152	0.0132602025
181	0x3ce31cc0	0.02772367
182	0xbd099ea5	-0.03359856
183	0xbd0dafef	-0.03459161
184	0xbdf3f41f	-0.11911797
185	0x3bd5297b	0.006505189
186	0x3cdd7c63	0.027036851
187	0x3e084c50	0.13310361
188	0xbd3fc65d	-0.046820033
189	0x3deaa4a1	0.11457182
190	0x3e03d762	0.12875131
191	0xbdb698ef	-0.089158885
192	0xbd42c548	-0.047551423
193	0xbccf79ad	-0.025326574
194	0x3de70582	0.112803474
195	0x3dcc83ae	0.099860534
196	0xbc60668f	-0.013696327
197	0x3d3013a3	0.042987477
198	0xbda8c1a3	-0.08240058
199	0xbd035c21	-0.032070283
200	0x3b37984b	0.0028014358
201	0x3d3b2d43	0.04569746
202	0x3d323c99	0.04351482
203	0xbd20711d	-0.039170373
204	0x3b8b4f87	0.0042514238
205	0xbe00d77c	-0.12582201
206	0xbd889105	-0.06668285
207	0xbc4b097f	-0.012392401
208	0xbd35645b	-0.04428516
209	0xb9c4fa55	-0.00037570545
210	0x3dfe559d	0.12418673
211	0xbccdb6dc	-0.025111608
212	0xbcba5607	-0.0227461
213	0x3ba8a3d3	0.0051464825
214	0x3e070a99	0.13187636
215	0x3df88412	0.121345654
216	0xbdab100c	-0.0835267
217	0x3df60eac	0.12014517
218	0xbd9f1e11	-0.077694066
219	0x3c932890	0.017963678
220	0xbd973186	-0.07382493
221	0xbd0b0d2f	-0.03394812
222	0x3d92d9da	0.07170458
223	0xbd18309c	-0.037155733
224	0xbdc80d8a	-0.09768207
225	0x3c4fb937	0.012678436
226	0x3c2f95c0	0.0107168555
227	0xbd69246c	-0.0569195
228	0x3d52cb7a	0.05146358
229	0xbdaa6cb2	-0.08321513
230	0x3c743bf1	0.014906869
231	0xbdc11ad8	-0.09428948
232	0xbdc421db	-0.0957677
233	0xbe0022e3	-0.12513308
234	0xbd3eced4	-0.046583965
235	0x3bdd8f57	0.006761472
236	0x3c021b20	0.007941037
237	0xbdb2cff7	-0.087310724
238	0x3d201500	0.039082527
239	0xbcbeef17	-0.023307366
240	0xbda18c19	-0.0788805
241	0xbde2ceb1	-0.110745795
242	0x3d95ba18	0.07310885
243	0xbdb32bc9	-0.08748586
244	0x3df054c9	0.117349215
245	0xbc931a15	-0.017956773
246	0xbd027e67	-0.031858828
247	0xbd00a421	-0.031406526
248	0xbc4f5466	-0.0126543995
249	0x3c3ab631	0.011395977
250	0xbd2cd181	-0.042191986
251	0xbd88c78b	-0.06678685
252	0xbc8056aa	-0.015666325
253	0x3d2fbd4d	0.04290514
254	0xbd093b11	-0.033503596
255	0x3d44ad11	0.04801661

lstm.bias_ih_l0 f4 [512]
0	0x3e070fc1	0.13189603
1	0xbcbf0adb	-0.023320606
2	0x3de36dcb	0.11104926
3	0x3d95d5e8	0.0731619
4	0x3dd7ae73	0.105313204
5	0x3d185498	0.03719005
6	0x3da9ca16	0.08290498
7	0x3e05a130	0.1304977
8	0x3dc0b365	0.09409217
9	0x3c45598a	0.012045274
10	0x3e0acb9e	0.13554236
11	0x3c2bbeb4	0.010482479
12	0x3c4c6f07	0.012477643
13	0x3d19d271	0.03755421
14	0x3df52b11	0.11971105
15	0x3dd07521	0.101785906
16	0x3d4a8356	0.049441658
17	0x3d529db4	0.05141993
18	0x3dcb2fa4	0.09921196
19	0x3d1a6c0d	0.0377007
20	0x3dc441cc	0.09582862
21	0x3da5ccca	0.08095701
22	0x3d33e654	0.04392083
23	0x3d6f01e4	0.058351412
24	0x3dbc0f86	0.09182648
25	0x3dbfd4e9	0.09366781
26	0x3df6f41f	0.12058281
27	0x3d6aec0b	0.057354014
28	0x3e102ca0	0.14079523
29	0x3cf0db6f	0.02940151
30	0xbc879c29	-0.016553955
31	0xba90ae46	-0.0011038266
32	0x3db2ae56	0.08724658
33	0x3d8f5a6a	0.06999667
34	0x3d1f20c0	0.038849592
35	0x3bac90d6	0.005266289
36	0x3c0652c2	0.008198442
37	0x3e041319	0.1289791
38	0x3c870796	0.01648311
39	0x3c377da3	0.011199388
40	0x3cf7391a	0.030178595
41	0x3dd6e183	0.10492232
42	0xbcd9958c	-0.026560567
43	0x3d8555fe	0.06510542
44	0x3d072145	0.032990713
45	0x3be57a93	0.0070031374
46	0x3d8d17de	0.06889318
47	0x3dcf8d77	0.10134404
48	0x3d6be1b6	0.0575883
49	0x3da1d596	0.079020664
50	0x3de43061	0.1114204
51	0x3d8cf35e	0.06882356
52	0x3c890d1c	0.016729884
53	0x3d242fe2	0.040084727
54	0x3dc686ff	0.09693717
55	0x3cb81a5f	0.022473512
56	0x3afd9d8b	0.001934932
57	0x3e02d4e9	0.12776531
58	0x3d033ac8	0.03203848
59	0x3d5ea171	0.05435318
60	0x3dead43f	0.11466264
61	0xbc3ec59f	-0.011643796
62	0x3dbccd83	0.09218886
63	0x3d27597f	0.040856835
64	0x3d2e74b1	0.042591754
65	0x3cf67fc4	0.03009022
66	0xbb01436b	-0.0019724022
67	0x3df056df	0.11735319
68	0x3dd1257a	0.10212226
69	0x3dce96a0	0.10087323
70	0x3e0d2999	0.137854
71	0x3d8b4f43	0.06802227
72	0xbc325245	-0.010883872
73	0x3daaad76	0.08333866
74	0xbc5855bd	-0.013204035
75	0x3e1464a7	0.14491521
76	0x3e0778f1	0.13229729
77	0x3d79d525	0.060994286
78	0xbc1b8541	-0.009492219
79	0x3dcb33ed	0.099220134
80	0x3e0245d0	0.12721944
81	0x3d34cacb	0.04413871
82	0x3d7c2b61	0.061564807
83	0x3d9f4f69	0.07778818
84	0xbb2e6a4d	-0.0026613653
85	0x3da14ffc	0.07876584
86	0x3de6d3a6	0.112708375
87	0x3decc335	0.1156067
88	0x3dc8c343	0.09802868
89	0x3e0daa0b	0.13834397
90	0x3cac2db5	0.021017889
91	0x3d213e5a	0.039366104
92	0x3e262950	0.16226697
93	0xb8fc07ac	-0.000120177254
94	0x3d6cdbc6	0.05782678
95	0x3cc0f477	0.02355407
96	0x3c03578b	0.008016477
97	0x3ddb68b6	0.107133314
98	0x3afd15a1	0.0019308814
99	0x3d5a1000	0.053237915
100	0x3dd0ca0d	0.10194788
101	0x3e03ad4d	0.12859078
102	0x3c042dba	0.008067543
103	0x3e0a47cf	0.13503955
104	0x3cf9d51e	0.03049713
105	0x3c771754	0.015081245
106	0x3d85cd78	0.06533331
107	0x3dc5b188	0.09653002
108	0x3e17c7f1	0.14822365
109	0x3d30a921	0.043130044
110	0xbc33e7ff	-0.010980605
111	0xbc86f472	-0.016473982
112	0x3da85c9a	0.08220787
113	0x3db612be	0.088902935
114	0x3d361327	0.04445186
115	0x3d536252	0.051607437
116	0x3dd1bbd2	0.10240902
117	0x3d5aeaf7	0.053446736
118	0x3e35aac5	0.17740925
119	0x3cf70415	0.030153314
120	0x3c73ac57	0.014872632
121	0x3dbfd056	0.09365909
122	0x3d8be39f	0.06830525
123	0x3d930465	0.071785726
124	0x3d8f5297	0.06998175
125	0x3db93fc0	0.090453625
126	0x3e266de7	0.16252862
127	0x3d960ae9	0.073263
128	0x3e021274	0.12702352
129	0x3d6c451f	0.057683107
130	0x3c077ce0	0.008269519
131	0x3de0310f	0.10946857
132	0x3dff6f04	0.124723464
133	0x3d99367a	0.07481094
134	0x3dbe5893	0.09294238
135	0x3bed8c60	0.0072494
136	0xbc48aa32	-0.012247609
137	0x3df40197	0.11914366
138	0x3db32228	0.08746749
139	0xbd42f37a	-0.04759548
140	0x3d9f7dbf	0.07787656
141	0x3d84816f	0.0647
142	0x3de61512	0.112344876
143	0x3dc76317	0.09735697
144	0xbd45a176	-0.048249684
145	0x3a04c396	0.0005064545
146	0x3d7d802a	0.061889805
147	0x3dfe8dde	0.12429403
148	0x3d763c36	0.060116015
149	0x3d7476f2	0.059683748
150	0x3dd39e11	0.10332883
151	0xbc02cfee	-0.007984145
152	0xbce23645	-0.027613768
153	0xbd466cf8	-0.048443764
154	0x3df582d5	0.11987845
155	0x3dce870d	0.10084353
156	0x3d95e347	0.0731874
157	0x3d87a1aa	0.06622632
158	0xbc39f549	-0.011349984
159	0x3d708fcd	0.05873089
160	0x3c894c6c	0.016760074
161	0x3d50a883	0.050941955
162	0x3dc45ebe	0.09588383
163	0x3da48bbe	0.08034466
164	0x3da592ad	0.08084617
165	0x3d227a3f	0.039667364
166	0x3d2e82eb	0.04260532
167	0x3dfe7e02	0.12426378
168	0xbc9903fa	-0.018678654
169	0x3def8c40	0.116966724
170	0x3d4f594a	0.050622262
171	0xbcd28df3	-0.025702452
172	0x3d4cb2d4	0.04997523
173	0x3da85d01	0.08220864
174	0x3da6cf0d	0.081449606
175	0xbd3ec148	-0.046571046
176	0xbd037754	-0.032096222
177	0x3dad4c78	0.08461851
178	0x3c267de9	0.010161855
179	0xbd0c5743	-0.034262907
180	0x3d91cf36	0.071196005
181	0xbd1476bb	-0.036246043
182	0x3dfe39f2	0.12413396
183	0x3d70024a	0.058595933
184	0x3b3d8728	0.002891967
185	0x3dfcf531	0.12351454
186	0x3dd06ff0	0.101776004
187	0xbb4e33f1	-0.0031464065
188	0x3cffe8e9	0.03123899
189	0x3d611722	0.0549537
190	0x3c9cb368	0.019128516
191	0xbbd8af82	-0.006612719
192	0x3dd2aa26	0.102863595
193	0x3be96834	0.0071230177
194	0xbcef879a	-0.029239465
195	0x3d9e3eb8	0.077268064
196	0x3d3aa568	0.0455679
197	0x3daa8961	0.08326984
198	0x3dccc0b1	0.099976905
199	0xbba88f82	-0.0051440606
200	0x3d67239f	0.056430455
201	0x3dd88b1b	0.10573407
202	0x3d2bb6a8	0.04192224
203	0x3d3ce43b	0.046116095
204	0x3de7b409	0.11313636
205	0x3c586d32	0.013209628
206	0x3de91804	0.11381534
207	0xbbd7c11f	-0.006584301
208	0x3d8e61c3	0.0695224
209	0xbc6a9ea4	-0.014320049
210	0x3d95f37c	0.073218316
211	0x3db387a0	0.08766103
212	0xbd05574e	-0.032553963
213	0x3cc7940f	0.024362592
214	0xbcfe292d	-0.031025494
215	0x3c8248c8	0.015903845
216	0x3de6f981	0.11278058
217	0x3dc6c685	0.09705833
218	0x3b001218	0.0019542035
219	0x3de0f8ea	0.109849766
220	0x3df51230	0.119663596
221	0x3ce81448	0.028329983
222	0x3db9d7f2	0.090743914
223	0x3d2bc4f4	0.041935876
224	0x3d7e1afe	0.06203746
225	0x3d617483	0.055042755
226	0xbd09e7f9	-0.033668492
227	0xbd46c4ff	-0.048527714
228	0xbcb3ad6a	-0.021933276
229	0x3d7bc480	0.061466694
230	0xbd1ef4b8	-0.0388076
231	0xbc470401	-0.012146951
232	0x3bca9630	0.0061824545
233	0xbd1d1abd	-0.038355578
234	0x3c8c8f92	0.017158303
235	0xbb8604a3	-0.004089908
236	0xbc939e66	-0.018019866
237	0x3d0dadf9	0.03458974
238	0x3ddc6638	0.10761684
239	0x3df123c4	0.117744
240	0x3bcf0b95	0.0063185194
241	0x3dd5e7db	0.104446135
242	0xbbd63778	-0.006537374
243	0x3d22a789	0.039710555
244	0x3db49309	0.08817107
245	0x3dd799e8	0.10527402
246	0x3d09c8f6	0.033638917
247	0xbcde8b10	-0.02716592
248	0x3d93a013	0.07208266
249	0xbc607103	-0.013698819
250	0x3d90302e	0.070404395
251	0x3df0fa5d	0.11766503
252	0x3c8f3af2	0.017484162
253	0x3d67a9a6	0.056558274
254	0xbab33d63	-0.0013674911
255	0x3dcaf6f5	0.099103846

lstm.bias_hh_l0 f4 [512]
0	0x3e07c0f2	0.13257197
1	0x3e08be3e	0.13353822
2	0x3d899737	0.06718295
3	0xbca331f6	-0.019921284
4	0xbc321a53	-0.010870534
5	0x3de4b0dc	0.11166546
6	0x3e02aae2	0.12760499
7	0x3d9e0c28	0.07717162
8	0xbc43fb52	-0.011961775
9	0x3d8c6b7e	0.0685644
10	0x3dd5987f	0.10429477
11	0x3d9a3ad5	0.075307526
12	0x3c952977	0.018208249
13	0x3df9c819	0.12196369
14	0x3b766e31	0.00376023
15	0x3d23f9e1	0.040033225
16	0x3dd7b774	0.10533038
17	0x3d9ccdd5	0.07656447
18	0x3c7215af	0.014775678
19	0x3d793c6d	0.060848642
20	0x3b82cea7	0.00399192
21	0x3d462d52	0.048383065
22	0x3db88e2c	0.09011492
23	0x3e180e40	0.14849186
24	0x3dc62639	0.09675259
25	0xbcaf3a43	-0.021390086
26	0x3de6a9f1	0.112628825
27	0x3cf603ee	0.03003117
28	0x3d362955	0.04447301
29	0x3ce475e3	0.027888244
30	0xbbc11c03	-0.005893232
31	0x3e069b56	0.13145193
32	0x3d107014	0.035263136
33	0x3d6c700b	0.05772404
34	0x3dc2e277	0.09515851
35	0x3d9ce45f	0.07660746
36	0x3da2d603	0.07950976
37	0x3c59f0ad	0.0133020105
38	0x3d120ccb	0.03565673
39	0x3debca89	0.1151324
40	0xbc43cfd8	-0.011951409
41	0xbca6e723	-0.020373886
42	0x3d4209a2	0.047372468
43	0x3d7a947e	0.06117677
44	0x3c650d09	0.013980159
45	0x3dad5de0	0.08465171
46	0x3caf5a67	0.021405412
47	0x3bb5e878	0.005551394
48	0x3d451954	0.048119858
49	0x3e0500c3	0.12988572
50	0x3e2a2942	0.16617301
51	0x3e0ab0d0	0.13544011
52	0xbc68d587	-0.014211065
53	0x3df58bb1	0.11989535
54	0xbccf72c8	-0.025323287
55	0xb8933338	-7.0190465e-05
56	0x3dba3a10	0.09093106
57	0xbb10e9e0	-0.0022112057
58	0x3da7ffdd	0.08203099
59	0x3d54cf1f	0.05195534
60	0x3e21d053	0.15802126
61	0x3db14946	0.08656554
62	0x3e2554b6	0.16145596
63	0x3c51ec23	0.012812647
64	0xbbb171fc	-0.0054151993
65	0x3ddc9b52	0.107718125
66	0x3de58e9d	0.11208842
67	0x3e02400b	0.12719743
68	0x3de5ead8	0.112264335
69	0xbcc05d2c	-0.023481928
70	0x3d9a8d25	0.075464524
71	0x3de68e15	0.11257569
72	0x3d296e9a	0.041365243
73	0x3db2d33d	0.08731697
74	0x3dcaa046	0.09893851
75	0xbc869efa	-0.016433228
76	0x3da474e1	0.080301054
77	0x3dcf3d13	0.10119071
78	0xbcafa892	-0.021442685
79	0x3e340dd8	0.17583406
80	0x3cd9f984	0.026608236
81	0x3de9cd9b	0.11416169
82	0x3d8575d5	0.06516615
83	0x3e0f8737	0.14016424
84	0x3c7addab	0.015311639
85	0x3b5cc11e	0.0033684443
86	0x3b03670f	0.0020050441
87	0x3dd3317e	0.10312174
88	0x3e083e26	0.13304958
89	0x3d3b0410	0.04565817
90	0x3da29e7d	0.079403855
91	0x3dfc9eba	0.12334962
92	0x3bd869e4	0.00660442
93	0x3d4c964e	0.04994803
94	0x3e1c37bc	0.15255636
95	0x3b5cb262	0.003367566
96	0x3dbb5fbc	0.09149119
97	0x3a8a3c12	0.0010546467
98	0x3db53676	0.08848278
99	0x3e083cf7	0.13304506
100	0x3e04cd32	0.12968901
101	0x3db1cfc6	0.08682208
102	0x3d5949f9	0.05304906
103	0x3d0a21fd	0.03372382
104	0xbc2e70d3	-0.010647017
105	0x3d0ea933	0.03482933
106	0xbc903b52	-0.017606411
107	0x3dbde5af	0.09272324
108	0x3d386df9	0.045026753
109	0xbbbaf87e	-0.005705892
110	0x3de448f7	0.111467294
111	0xbce4ad90	-0.027914792
112	0x3dd4ac7f	0.103844635
113	0x3dbe31e7	0.09286862
114	0x3e14046f	0.14454816
115	0x3d331616	0.043722235
116	0x3c09f1c6	0.00841946
117	0x3dad3a0f	0.084583394
118	0x3e061b6f	0.13096403
119	0x3defa619	0.117016025
120	0x3dc1ac6c	0.09456715
121	0x3de89052	0.11355652
122	0x3e1a6621	0.15078022
123	0x3cd7c71a	0.026340056
124	0x3e1ccade	0.15311763
125	0xbca9fb0b	-0.02074959
126	0x3e4c20dc	0.1993441
127	0x3da6705b	0.08126899
128	0xbc600c0a	-0.013674745
129	0x3d4aaa1b	0.04947863
130	0x3d42e551	0.047581974
131	0x3ca3e9c0	0.020008922
132	0x3deaef16	0.11471383
133	0x3dea70e1	0.11447311
134	0x3dfaebe3	0.12252023
135	0x3d923106	0.07138257
136	0x3de9dd8f	0.11419212
137	0xbc4f8a4b	-0.012667249
138	0x3da22baa	0.079184845
139	0xbd3d0e81	-0.04615641
140	0x3d94ac9a	0.07259484
141	0x3d4fdc5c	0.05074726
142	0xbced29cf	-0.0289506
143	0xbd1740e6	-0.036927126
144	0x3d0850f5	0.03328033
145	0xbc8cdf17	-0.017196221
146	0x3c09cd7a	0.008410806
147	0x3decc744	0.115614444
148	0x3d94571b	0.072431765
149	0x3d16cf24	0.03681864
150	0xbcd6dade	-0.02622741
151	0x3d9488e6	0.07252674
152	0xbd29c082	-0.041443355
153	0xbadefb1f	-0.0017012096
154	0x3a810454	0.0009843209
155	0x3d87e395	0.06635205
156	0xbb204e56	-0.0024460754
157	0x3d0b1629	0.03395668
158	0xbbebc8ee	-0.0071955835
159	0x3c2226d4	0.009896953
160	0xbc3dbebf	-0.011581122
161	0x3dfc4172	0.1231717
162	0x3c3f0e62	0.011661144
163	0x3bd0c6b7	0.006371345
164	0x3cee465a	0.02908628
165	0x3de6b2fa	0.11264606
166	0x3d81a36b	0.06329998
167	0x3d4451d7	0.04792961
168	0xbcdd1632	-0.026988123
169	0xbd10a3ab	-0.035312336
170	0x3c68f80f	0.014219298
171	0xbc16f62b	-0.009213964
172	0x3dc5cc51	0.09658111
173	0x3d26d3c3	0.040729295
174	0x3dfc9849	0.123337336
175	0x3ded3ec6	0.11584239
176	0xbd0c7654	-0.034292534
177	0x3d457abc	0.04821275
178	0x3d743d5e	0.059628837
179	0x3d3df758	0.046378464
180	0x3dadfc2f	0.08495366
181	0x3d37939a	0.0448185
182	0x3c8a2d5f	0.016867338
183	0xbb89cf44	-0.004205616
184	0xbce328ff	-0.02772951
185	0xbcf91e47	-0.030409945
186	0x3d908953	0.070574425
187	0x3cb22f0b	0.021750947
188	0x3dcc70ef	0.09982478
189	0x3da241fa	0.0792274
190	0xbd430340	-0.04761052
191	0x3da00c41	0.07814837
192	0x3d5e049a	0.054203607
193	0xbce58e11	-0.028021844
194	0x3d4425b6	0.047887526
195	0x3ccac7bc	0.024753444
196	0xbd0b474d	-0.034003545
197	0x3c8a8eae	0.016913738
198	0x3ded5e09	0.115902014
199	0xbc98352a	-0.018580038
200	0xbbda6f35	-0.006666089
201	0x3d927550	0.07151282
202	0xbb7321bb	-0.0037098962
203	0xbc85a02f	-0.016311733
204	0x3ced98ff	0.029003618
205	0x3caeff0a	0.021361846
206	0x3df8c562	0.12147023
207	0xbccf93ae	-0.025338974
208	0x3d9e1f61	0.07720829
209	0xbc2f394e	-0.010694815
210	0x3d0ca0dc	0.034333095
211	0x3c0b12c6	0.008488363
212	0x3d883c45	0.066521205
213	0xbd387380	-0.045032024
214	0xbd0e9335	-0.034808356
215	0x3daa64b4	0.08319989
216	0x3cec90cc	0.028877638
217	0x3c81e8d7	0.015858097
218	0x3da32c7c	0.07967469
219	0x3cb8bd7c	0.02255129
220	0x3d6ececd	0.05830269
221	0x3d8510f7	0.064973764
222	0x3df5b57c	0.11997506
223	0x3de445de	0.111461386
224	0xbc390dd9	-0.011294805
225	0xbd25b997	-0.040460195
226	0x3d1652fd	0.036700238
227	0x3d725ba6	0.059169434
228	0x3da58327	0.08081656
229	0xbd195b04	-0.037440315
230	0xbd2a09d0	-0.041513264
231	0x3dff021e	0.12451576
232	0x3bbf4a20	0.005837694
233	0xbcec67e3	-0.02885813
234	0x3de8f9d6	0.113757774
235	0x3e0633af	0.13105653
236	0x3d62b988	0.055352718
237	0x3dd6b7b2	0.10484256
238	0x3cc77b96	0.024350923
239	0xbd6c5ef9	-0.05770776
240	0x3ce9113f	0.028450606
241	0x3db8e7f1	0.09028614
242	0xbcc3097f	-0.023808239
243	0xbcd4961f	-0.02595049
244	0x3cefa504	0.02925349
245	0x3da8e502	0.08246805
246	0x3d89978d	0.06718359
247	0x3cfbceae	0.030738201
248	0xbc3c9d3f	-0.0115121
249	0xbc273418	-0.010205291
250	0x3d505e43	0.050871145
251	0xbbd15660	-0.0063884705
252	0x3cf5c0ed	0.02999922
253	0xbcf3992d	-0.029736126
254	0x3dddf3fb	0.10837551
255	0x3d932c5b	0.071861945

lstm.weight_ih_l1 f4 [512, 128]
0	0xbd8524da	-0.065011695
1	0x3d94f6ef	0.07273661
2	0xbe20111f	-0.15631531
3	0xbd0b2994	-0.0339752
4	0x3cb45791	0.022014411
5	0x3db7c420	0.08972955
6	0xbc202f80	-0.00977695
7	0x3d0f59fe	0.034997933
8	0x3c911e04	0.017714508
9	0x3a3c6afc	0.0007187573
10	0x3e0217b2	0.12704352
11	0xbd835bbc	-0.06413981
12	0x3de511c1	0.11185027
13	0x3d501f11	0.050810877
14	0xbe168612	-0.14699581
15	0xbd9844e4	-0.07435015
16	0xbda86e1d	-0.082241274
17	0xbcc7a7c1	-0.024371983
18	0xbba982e0	-0.005173072
19	0x3dbee819	0.09321613
20	0xbdd701df	-0.10498404
21	0x3e26ce25	0.16289575
22	0x3d8f7284	0.07004264
23	0xbdc269a6	-0.09492807
24	0x3d0d36e0	0.03447616
25	0x3dc8b5ad	0.09800277
26	0x3d66e2f6	0.05636879
27	0xbd45150e	-0.048115782
28	0x3dc3a555	0.09553019
29	0x3cbfa379	0.02339338
30	0x3abbd745	0.0014331123
31	0xbde7ac35	-0.11312143
32	0xbd0af453	-0.033924412
33	0xbdd1f446	-0.102516696
34	0xbd959734	-0.0730423
35	0x3d8c56b0	0.06852472
36	0xbc27d4e2	-0.010243626
37	0x3cdbbbb3	0.0268229
38	0xbcef8376	-0.02923749
39	0x3c48516c	0.012226444
40	0xbdfab5c6	-0.12241702
41	0xbdbb9959	-0.09160108
42	0xbd47a457	-0.04874071
43	0x3c36bc3c	0.011153277
44	0xbd6597f6	-0.056053124
45	0x3d0b7219	0.03404436
46	0x3d4d8872	0.050178953
47	0xbd7eb785	-0.062186737
48	0xbc97ea9a	-0.018544484
49	0x3b1b64ac	0.0023711128
50	0x3defad8e	0.11703025
51	0x3b05db47	0.002042489
52	0x3dbef6e8	0.093244374
53	0x3d4205f3	0.047368955
54	0x3de17df3	0.11010351
55	0x3ddc83b0	0.10767305
56	0xbd62910e	-0.055314116
57	0x3c37a081	0.011207701
58	0x3d2c77cb	0.04210643
59	0x3dd02960	0.10164142
60	0xbc5631d9	-0.013073408
61	0x3dcfd28b	0.1014758
62	0x3d3d8762	0.04627169
63	0xbe0ed235	-0.13947375
64	0xbe0ebcd7	-0.13939224
65	0xbd5e11fe	-0.054216377
66	0x3a21a8ad	0.0006166797
67	0x3d4b8fcc	0.049697682
68	0xbe039cbc	-0.12852758
69	0x3e05ffad	0.13085814
70	0xb9c66fd0	-0.0003784881
71	0x3e01a564	0.12660748
72	0x3c5a5f9f	0.013328462
73	0x3d87a2f6	0.06622879
74	0x3df45a9e	0.11931346
75	0x3dd9c6a0	0.10633588
76	0xbe004a22	-0.1252828
77	0xbdd74c9a	-0.105126575
78	0xbb02a331	-0.0019933695
79	0x3e21ee74	0.15813619
80	0x3be7d6ae	0.0070751524
81	0x3cde15b4	0.027109958
82	0x3c84e767	0.016223622
83	0x3d13450c	0.03595452
84	0xbcbc4c85	-0.022985706
85	0x3cd2e70b	0.025744935
86	0x3db291c8	0.08719212
87	0x3e0ff729	0.14059128
88	0xbc9e9710	-0.019359142
89	0x3d88b9ee	0.06676088
90	0xbdd191a1	-0.10232855
91	0x3daf234e	0.08551656
92	0xbddd03b9	-0.10791726
93	0xbc19768f	-0.0093666455
94	0x3ddd3b29	0.108022995
95	0xbdc74cec	-0.097314686
96	0xbd06667c	-0.03281258
97	0x3d93d443	0.0721822
98	0x3e1514b7	0.14558683
99	0x3dab0acc	0.08351669
100	0xbd0f417f	-0.03497457
101	0xbd37d1a8	-0.04487768
102	0x3ddfdf9a	0.109313205
103	0xbdbf7239	-0.09347958
104	0xbe0adbbf	-0.13560389
105	0xbdb1bf39	-0.08679051
106	0xbda00cba	-0.078149274
107	0xbd1d3d63	-0.03838862
108	0xbc9d733c	-0.019219987
109	0xbe02a24f	-0.12757228
110	0x3dfe496b	0.12416347
111	0x3cc89055	0.024482885
112	0xbdc0b839	-0.09410138
113	0xbcd19af2	-0.025586579
114	0x3d58f4e6	0.05296793
115	0x3bc6235d	0.006046696
116	0x3d878627	0.066173844
117	0x3dc47577	0.09592717
118	0xbe0a2a97	-0.13492809
119	0xbcf696f6	-0.03010128
120	0xbd15c1e2	-0.036561854
121	0x3d0860d1	0.033295456
122	0xbe04ed4d	-0.12981148
123	0xbe09ba61	-0.13450004
124	0xbcb5aa27	-0.022175862
125	0x3cbcf1ad	0.023064459
126	0x3e036a96	0.12833628
127	0x3df0f0c9	0.11764676
128	0xbdf16be1	-0.117881544
129	0x3d30ba4e	0.043146424
130	0x3baed78c	0.005335754
131	0xbe035c29	-0.12828125
132	0x3dcff7ab	0.10154661
133	0x3db667cd	0.08906517
134	0xbda404fc	-0.08008763
135	0xbc0f37bb	-0.0087413145
136	0xba9ab94d	-0.0011804492
137	0x3de63038	0.11239666
138	0xbcf8e4cb	-0.030382534
139	0xbd230af8	-0.039805382
140	0x3d431616	0.047628485
141	0x3da5ddf2	0.08098973
142	0xbcc45580	-0.02396655
143	0xbe0ad9f8	-0.13559711
144	0xbca7b4d3	-0.020471966
145	0xbde78288	-0.11304194
146	0xbc98ec1c	-0.018667273
147	0x3a5f1efd	0.00085113925
148	0xbe0271ff	-0.12738799
149	0x3df94131	0.121706374
150	0x3d578e4a	0.05262593
151	0xbd79740b	-0.060901683
152	0x3c0951ce	0.00838132
153	0x3d93bf62	0.07214238
154	0xbc223e91	-0.009902612
155	0xbcc56ca5	-0.024099657
156	0x3dee4b46	0.11635451
157	0xbd010082	-0.031494625
158	0x3d0648ff	0.03278446
159	0xbe0eacc0	-0.13933086
160	0xbd809d60	-0.06280017
161	0xbe04ab6e	-0.1295602
162	0xbddf39ef	-0.10899722
163	0xba8cbcbe	-0.0010737402
164	0xbc588666	-0.013215637
165	0x3dd0030e	0.10156833
166	0x3de5a71e	0.11213516
167	0x3d0fbaae	0.03509014
168	0x3ceffce0	0.029295385
169	0xbdcb4101	-0.09924508
170	0xbc2fc797	-0.010728738
171	0x3cadd7e6	0.021221112
172	0xbda32fcc	-0.07968101
173	0x3babb722	0.005240337
174	0x3c6d74cd	0.0144931795
175	0xbd1f41db	-0.038881164
176	0xbdf4c253	-0.11951127
177	0x3d4d280b	0.050087016
178	0x3de1edae	0.11031662
179	0x3d1b173c	0.037863955
180	0x3d5fe030	0.05465716
181	0x3d114110	0.03546244
182	0x3dad9d0a	0.084772184
183	0x3d7df7f3	0.06200404
184	0x3caf4235	0.021393875
185	0x3e00f65f	0.12593983
186	0xbd19c637	-0.037542548
187	0xbb42367d	-0.0029634528
188	0xbdd63933	-0.10460129
189	0xbd06e71b	-0.032935243
190	0x3d117bdc	0.035518512
191	0xbdbf71ae	-0.093478546
192	0x3bce88c6	0.0063029258
193	0xbdae70c6	-0.085176036
194	0x3caf421a	0.021393824
195	0x3d08d7d8	0.03340897
196	0xbd240d3f	-0.040051695
197	0x3d88ffb3	0.06689396
198	0xbdce0026	-0.10058622
199	0x3db2c658	0.08729237
200	0xbd8bdb4b	-0.06828936
201	0x3de57eaa	0.112058
202	0xbc086d46	-0.008326834
203	0x3de128a2	0.10994078
204	0x3c9c215e	0.01905888
205	0xbe11bdc7	-0.1423255
206	0xbdc3bddb	-0.095576964
207	0x3dcbf0b3	0.09958019
208	0xbd32de44	-0.043669
209	0x3bbec912	0.0058223093
210	0x3e125ffa	0.14294425
211	0xbd3e838d	-0.046512175
212	0x3cbe7add	0.023251945
213	0xbbf3e015	-0.007442484
214	0xbcbae892	-0.022815976
215	0xbcbccfbc	-0.023048274
216	0xbd28d63e	-0.041219942
217	0x3d2176d5	0.039419968
218	0x3bfb983e	0.007678061
219	0x3e0e2b42	0.13883689
220	0xbd9c7503	-0.07639506
221	0x3d168b1b	0.036753755
222	0xbc3e2105	-0.011604552
223	0xbdb149fe	-0.08656691
224	0xbdd762ec	-0.10516915
225	0x3dbd9534	0.09256974
226	0x3e22bbf4	0.15892011
227	0xbcd11c37	-0.02552615
228	0x3b7e3c6f	0.0038793345
229	0xbd955464	-0.07291487
230	0x3defe73e	0.11714028
231	0xbbc1a564	-0.0059096087
232	0xbdf4bf15	-0.119505085
233	0xbd982596	-0.07429044
234	0xbd8bb9d8	-0.06822556
235	0xbce9b3bd	-0.028528089
236	0xbd964df9	-0.07339091
237	0xbdd63194	-0.10458675
238	0x3dd9fe2b	0.10644182
239	0xbe0644e4	-0.13112217
240	0xbc9b0151	-0.018921526
241	0xbdb4aab3	-0.08821621
242	0x3e00bb93	0.12571554
243	0xbd8f8c65	-0.070092
244	0x3b978954	0.004624525
245	0x3db89069	0.09011919
246	0xbdfdfb79	-0.1240148
247	0x3df31acf	0.11870348
248	0x3dab261a	0.08356877
249	0x3d5c373c	0.053763613
250	0xbb3d986b	-0.002892996
251	0xbe0c6dec	-0.13713807
252	0xbd6306cb	-0.0554264
253	0xbd2b2ace	-0.04178887
254	0x3d5f8fe2	0.054580577
255	0x3d5a56c3	0.0533054

lstm.weight_hh_l1 f4 [512, 128]
0	0x3ce5a2aa	0.028031666
1	0xbd592b2a	-0.05301968
2	0x3d094877	0.033516373
3	0xbd84875d	-0.06471131
4	0xbda7b782	-0.08189298
5	0xbddd1738	-0.10795444
6	0xbde51a37	-0.11186641
7	0x3da0b490	0.078469396
8	0x3c5adc06	0.013358122
9	0x3cb71aa7	0.022351576
10	0x3df04a40	0.11732912
11	0xbd9c9203	-0.07645037
12	0x3dc5bd08	0.096551955
13	0x3d29785f	0.04137456
14	0x3b9c2c3b	0.004766015
15	0xbcc0a9c1	-0.023518445
16	0x3c9dabd8	0.01924698
17	0x3d2f619f	0.042817708
18	0xbdea6363	-0.11444738
19	0xbd0ee544	-0.034886613
20	0xbd344083	-0.044006836
21	0xbc212aac	-0.009836834
22	0xbd679d66	-0.05654659
23	0x3d4caaab	0.04996745
24	0x3c990162	0.018677417
25	0xbdd94cbb	-0.10610338
26	0xbdb17e4d	-0.08666668
27	0xbcca322d	-0.024682129
28	0xbcf8638b	-0.030320903
29	0xbdab5899	-0.08366508
30	0xbc89fb73	-0.016843533
31	0x3c89813f	0.016785262
32	0x3d14a2c8	0.036288053
33	0xbdf08fdc	-0.11746189
34	0x3c9b9081	0.018989803
35	0xbdc3e9f1	-0.09566105
36	0xbdbadb96	-0.09123914
37	0x3e6981c7	0.22803412
38	0x3d3034d8	0.043019146
39	0xbb990858	-0.004670184
40	0x3de7f9e5	0.113269605
41	0xbda976d6	-0.08274619
42	0x3dc200fe	0.094728455
43	0x3b22dd2a	0.0024851062
44	0xbd6066fa	-0.054785706
45	0x3d54a809	0.051918063
46	0xbd2489fc	-0.040170655
47	0x3d88c6d8	0.066785514
48	0x3da9bc4e	0.082878694
49	0x3cc68ef8	0.024238095
50	0x3d51a078	0.051178426
51	0x3c8eeaf0	0.017446011
52	0xbdcd7dca	-0.10033758
53	0x3d951622	0.07279612
54	0xbde9a843	-0.114090465
55	0xbd904ff8	-0.07046503
56	0xbd15830a	-0.03650192
57	0xbcbdedb3	-0.023184633
58	0x3dee2611	0.11628354
59	0xbd178833	-0.036995124
60	0x3dbf4117	0.09338587
61	0x3d56b7e2	0.052421458
62	0xbc8e3ce5	-0.017363021
63	0x3d12aa57	0.03580698
64	0x3b8f2fc2	0.004369707
65	0xbdc38eeb	-0.09548744
66	0x3d27e829	0.04099289
67	0xbd9876cf	-0.07444536
68	0x3d231145	0.03981139
69	0x3db134d5	0.08652655
70	0x3d47df55	0.04879697
71	0xbdcc1bd2	-0.09966244
72	0x3dc25bb3	0.094901465
73	0xbd14dd09	-0.036343608
74	0x3d1edd98	0.038785547
75	0xbcd87dba	-0.026427139
76	0xbc929f65	-0.01789827
77	0xbd30305a	-0.04301486
78	0x3cf242b8	0.02957283
79	0x3d9c7839	0.07640118
80	0xbdc2600c	-0.09490976
81	0x3d57068d	0.05249648
82	0x3de6afe0	0.11264014
83	0x3d1e2d6b	0.038617533
84	0x3cfa3eaa	0.030547459
85	0x3e4185d2	0.18898705
86	0xbd834ed8	-0.064115226
87	0x3d39f029	0.04539505
88	0x3d9dcbd8	0.07704896
89	0x3c349774	0.011022437
90	0xbae5415e	-0.0017490794
91	0x3d116354	0.035495117
92	0xbda245a3	-0.079234384
93	0xbd1f3348	-0.038867265
94	0xbdc99d89	-0.098445006
95	0x3daab38a	0.083350256
96	0xbd68e5f6	-0.056859933
97	0xbd340aba	-0.043955542
98	0x3dce2d4f	0.10067236
99	0x3d9b63b3	0.075873755
100	0x3d1cb56f	0.038258966
101	0x3d1b96eb	0.037985723
102	0x3e16efb7	0.14739881
103	0xba6b8afb	-0.0008985248
104	0x3dd70f96	0.1050102
105	0x3d8ca3a0	0.068671465
106	0xbdc83dc0	-0.09777403
107	0xbd2e9ca2	-0.042629845
108	0x3b1a387c	0.0023532202
109	0x3d2f4996	0.042794786
110	0xbd832684	-0.06403831
111	0xbdc4ffc2	-0.096190944
112	0xbdeefd7d	-0.11669443
113	0xbd05dfe3	-0.03268422
114	0xbd3cc0c4	-0.046082273
115	0x3d248605	0.040166873
116	0x3cd0df3f	0.025497077
117	0x3db624e0	0.08893752
118	0x3dcf7628	0.101299584
119	0x3d463bdc	0.04839693
120	0xbbf164ef	-0.0073667686
121	0x3d38e058	0.045135826
122	0x3d518af1	0.051157895
123	0xbd3379b2	-0.04381723
124	0x3d697ec0	0.057005644
125	0xbcf4fc96	-0.029905599
126	0x3d3e229b	0.04641972
127	0x3d336341	0.043795828
128	0x3ddf8128	0.109133065
129	0x3dfe5dc5	0.12420229
130	0xbdfb06bd	-0.122571446
131	0x3b977e70	0.004623227
132	0x394cd181	0.00019533002
133	0xba1f4951	-0.00060762936
134	0x3c0afd07	0.008483178
135	0x3dac0d16	0.084009334
136	0x3b62bc6d	0.0034597174
137	0xbd84de89	-0.06487758
138	0x3e0b10f9	0.13580693
139	0xbd793241	-0.06083894
140	0x3c9719c2	0.0184449
141	0xbc8a79eb	-0.016903838
142	0x3e0328cf	0.12808536
143	0x3bf3128e	0.0074179834
144	0x3da7196e	0.08159147
145	0x3cd162cf	0.02555981
146	0xbc13bddf	-0.009017437
147	0x3cfdf3b9	0.031000005
148	0x3db1b87c	0.08677766
149	0x3de43e9f	0.111447565
150	0x3dd100b5	0.10205213
151	0xbc68598a	-0.014181504
152	0x3d216055	0.03939851
153	0x3cfcccc4	0.030859359
154	0xbde0cc07	-0.10976415
155	0xbd2fe8a6	-0.04294648
156	0xbd340249	-0.04394749
157	0xbc609b5e	-0.013708917
158	0x3dcb5200	0.0992775
159	0x3df4581b	0.11930867
160	0x3d2654ea	0.040608324
161	0xbd3d2138	-0.046174258
162	0x3d245dc1	0.040128473
163	0xbd89b136	-0.067232534
164	0xbdac3f30	-0.084104896
165	0x3e5f7a4e	0.21824
166	0xbd9ee3bd	-0.077582814
167	0x3ded0328	0.11572868
168	0x3de333d0	0.11093867
169	0xbdece2a3	-0.11566665
170	0xbbc1520e	-0.0058996743
171	0x3cad129c	0.021127038
172	0x3d86e96e	0.06587492
173	0x3d8b8b29	0.06813652
174	0xbd385358	-0.045001358
175	0xbcebb10b	-0.028770944
176	0x3d4ffc95	0.05077799
177	0xbdfb6d67	-0.12276726
178	0xbdf0996e	-0.117480144
179	0x3ddb3868	0.10704118
180	0x3c8ccf2b	0.01718863
181	0x3db3bde6	0.08776455
182	0x3bc3600d	0.005962378
183	0xbd888327	-0.0666564
184	0x3dcec45d	0.10096047
185	0xbd89f0e6	-0.06735401
186	0x3c85a3af	0.016313402
187	0xbc91b6db	-0.017787388
188	0x3d680684	0.05664684
189	0xba3ea587	-0.00072725903
190	0xbe009926	-0.12558421
191	0xbc036150	-0.008018807
192	0x3d245bba	0.04012654
193	0xbdab9dac	-0.08379683
194	0x3dcc4142	0.099733844
195	0xbcee76ee	-0.029109444
196	0xbd207911	-0.039177958
197	0xbb90c242	-0.0044176886
198	0x3de83c80	0.113396645
199	0x3c124c7c	0.008929368
200	0x3d12968a	0.035788096
201	0xbcb2fc54	-0.021848835
202	0xbd186bd1	-0.037212197
203	0xbdf0e6ec	-0.11762795
204	0x3dc924b7	0.09821456
205	0x3d051258	0.032488197
206	0xbde4aa69	-0.11165316
207	0x3dcaf1af	0.09909379
208	0xbdb3214f	-0.087465875
209	0x3c8ce233	0.017197704
210	0x3df1b4d9	0.11802072
211	0x3d15b981	0.036553863
212	0x3defea48	0.117146075
213	0x3e45bd79	0.1931056
214	0x3d34e786	0.04416611
215	0x3d949456	0.07254855
216	0xbc9cec76	-0.019155722
217	0x3e057b59	0.13035335
218	0xbda5d2f9	-0.080968805
219	0x3d4acb31	0.049510185
220	0xbd9f650d	-0.07782946
221	0xbd860c2f	-0.065452926
222	0xbd6ed00a	-0.05830387
223	0x3c941512	0.018076453
224	0xbdc9fd1f	-0.09862732
225	0xbde17965	-0.11009482
226	0x3dbb65fb	0.091503106
227	0x3c1cc260	0.009567827
228	0x3dfddfd2	0.12396206
229	0x3d2b94fb	0.041890126
230	0x3c958ec3	0.01825655
231	0x3c9193c4	0.017770655
232	0xbca57946	-0.02019943
233	0x3d86d61d	0.065838076
234	0xbc77db64	-0.01512799
235	0xbb22c814	-0.0024838494
236	0xbc6fb759	-0.014631116
237	0xbaf3a52f	-0.0018588657
238	0x3d2aa821	0.041664246
239	0xbd39d539	-0.04536936
240	0xbd5abd5e	-0.05340325
241	0x3d9e0d06	0.07717328
242	0x3dbd6531	0.09247816
243	0xbdd0486b	-0.10170063
244	0x3d1b1e7f	0.03787088
245	0xbc518e1f	-0.012790232
246	0x3d968547	0.073496394
247	0xbd8fad5b	-0.07015487
248	0x3cee7dc1	0.029112699
249	0xbbfcf3e1	-0.0077195023
250	0x3d0339ae	0.03203743
251	0x3cf678bb	0.030086866
252	0x3de2ca63	0.110737585
253	0xbde044d5	-0.10950629
254	0xbd1ebed1	-0.038756195
255	0xbdb7bec5	-0.08971933

lstm.bias_ih_l1 f4 [512]
0	0x3e086aa0	0.13321924
1	0x3d831093	0.06399646
2	0x3dedf387	0.11618715
3	0x3ccd0e3a	0.025031198
4	0x3cbbc54c	0.022921227
5	0xbb1a4124	-0.0023537362
6	0x3e07b2d1	0.13251807
7	0x3dd64e34	0.10464135
8	0x3d985bb6	0.074393675
9	0x3b02c3a2	0.0019953032
10	0x3dd7afd3	0.10531583
11	0xbc53617c	-0.01290166
12	0x3d5b4bbb	0.05353902
13	0x3cfc1c16	0.030775111
14	0x3c86c006	0.016448986
15	0xbc8664fd	-0.016405577
16	0x3d7115b7	0.0588586
17	0x3d9c6650	0.07636702
18	0x3cee71f7	0.029107077
19	0x3caad0e1	0.020851554
20	0xbcba6e29	-0.022757607
21	0x3d8c7094	0.0685741
22	0x3ca2380f	0.019802121
23	0x3ddebebd	0.10876224
24	0xbc9a8384	-0.01886154
25	0x3cc36acc	0.023854636
26	0x3e09eeb4	0.13469964
27	0x3d8c51e7	0.06851559
28	0xbb2822a3	-0.002565541
29	0x3cdd5c6f	0.027021615
30	0xbc9ab6d6	-0.018886011
31	0x3d93efa4	0.07223442
32	0x3dd10f4d	0.102079965
33	0x3e0e5e0c	0.13903064
34	0x3e0d9610	0.13826776
35	0x3d726ea3	0.059187543
36	0x3d162ae3	0.036661994
37	0x3de59409	0.11209876
38	0xbcc4fd43	-0.024046546
39	0x3d7ff887	0.062492874
40	0x3da05c2b	0.0783008
41	0xbcdeb081	-0.027183773
42	0x3df4c52a	0.119516686
43	0x3d29e44b	0.041477483
44	0x3daabd24	0.08336857
45	0x3dcff778	0.10154623
46	0xbc1a0ee6	-0.009402966
47	0x3d1ccda2	0.038282044
48	0x3e00b365	0.12568434
49	0x3d29cd7b	0.041455727
50	0x3d822019	0.063537784
51	0x3d77beba	0.060484625
52	0x3cddd2cd	0.027078057
53	0x3dc3c9be	0.09559964
54	0x3d315a3e	0.043298952
55	0x3dff6605	0.124706306
56	0x3daa7bbb	0.08324381
57	0x3e0e2cf4	0.13884336
58	0x3df048fe	0.11732672
59	0x3c07b173	0.008282053
60	0x3da4f663	0.08054807
61	0x3dd65274	0.104649454
62	0x3dbe393b	0.092882596
63	0x3df8a75e	0.12141298
64	0x3dda47db	0.106582366
65	0xbc5bad7a	-0.013408059
66	0x3da3b027	0.07992583
67	0xbcc138b6	-0.023586612
68	0x3ceb384e	0.028713372
69	0x3d8b9aed	0.06816659
70	0x3d6b61df	0.057466384
71	0xbcd5a15d	-0.02607792
72	0x3cee2e4a	0.029074807
73	0x3df7a959	0.120928474
74	0xbc4e8def	-0.012607082
75	0x3dc5a611	0.09650815
76	0x3dc0a703	0.09406855
77	0x3dbd2723	0.0923598
78	0x3caa34ec	0.020777188
79	0xbc87d760	-0.016582191
80	0x3e0d03bd	0.13770957
81	0x3df241a0	0.11828923
82	0x3d941080	0.072297096
83	0x3d13320b	0.035936397
84	0x3e04956d	0.12947626
85	0x3e1a2460	0.15052938
86	0x3d41c0a7	0.04730287
87	0x3cc08c17	0.0235043
88	0x3c5a26ee	0.013314946
89	0x3d1adaa8	0.037806183
90	0x3d25e391	0.040500227
91	0x3d1906e3	0.037360083
92	0xbc8c39ff	-0.017117498
93	0x3e0bd64d	0.13655968
94	0x3d9e8ecb	0.07742079
95	0x3e0340ef	0.12817739
96	0xbbd72756	-0.0065659685
97	0x3d9302d6	0.07178275
98	0x3d8e9cf3	0.069635294
99	0x3dae63e0	0.085151434
100	0x3e08b350	0.13349652
101	0x3d538bba	0.051646926
102	0x3e2e1ee1	0.17003967
103	0x3de0d17a	0.109774545
104	0x3ce4390b	0.027859231
105	0x3b970dbd	0.004609792
106	0x3d38d052	0.045120545
107	0x3db92928	0.09041053
108	0xbcd9a043	-0.026565677
109	0x3c48bd3f	0.012252151
110	0xbc3843e3	-0.011246654
111	0xbcb732bd	-0.022363061
112	0xbcb26f53	-0.0217816
113	0x3b31ce24	0.0027130926
114	0xbb46c773	-0.0030331283
115	0xbcb48cfe	-0.022039887
116	0x3d8d2806	0.068923995
117	0x3d9a969e	0.07548259
118	0xbca09b55	-0.019605318
119	0x3da2edd2	0.07955517
120	0x3e029376	0.12751564
121	0xba554d51	-0.0008136826
122	0x3e000464	0.12501675
123	0x3d5ad513	0.05342586
124	0x3d566769	0.052344713
125	0x3dda806a	0.10669024
126	0x3da7897d	0.08180521
127	0x3e017153	0.12640886
128	0x3d8e1652	0.06937851
129	0x3c26b6b3	0.010175395
130	0xbc9bdaea	-0.019025285
131	0xbd57d298	-0.052691072
132	0xbc1634b7	-0.009167842
133	0x3d20f872	0.039299436
134	0x3d29b5ec	0.04143326
135	0x3d990a27	0.074726395
136	0x3c8e0ac3	0.017339116
137	0x3df111b0	0.11770952
138	0x3de86f41	0.11349345
139	0x3ae08eca	0.0017132398
140	0x3d3c00cd	0.0458992
141	0xbbf33a5f	-0.00742273
142	0xbbb56fae	-0.005536995
143	0xbd30fbbe	-0.04320883
144	0xbb98fde2	-0.004668937
145	0xbc0deebb	-0.008662875
146	0x3cfef43d	0.031122321
147	0xbcb1e479	-0.02171539
148	0xbba5f068	-0.005064059
149	0x3bc14572	0.005898171
150	0x3ddd3fb6	0.108031675
151	0x3dbb4b8b	0.09145268
152	0xbced60b0	-0.028976768
153	0xbd2c43df	-0.042056914
154	0x3da8059d	0.08204196
155	0x3c255eae	0.010093374
156	0xbcb89345	-0.022531161
157	0x3df7d233	0.12100639
158	0xbc51f718	-0.012815259
159	0x3ccd3b5b	0.025052717
160	0x3df1ef9b	0.11813279
161	0x3d3f5147	0.04670837
162	0x3d33f364	0.043933287
163	0x3d23d65b	0.039999347
164	0x3dedc615	0.11610047
165	0xbbd3295d	-0.00644414
166	0x3c337173	0.010952341
167	0x3c8f3eae	0.017485943
168	0x3d97e5a0	0.07416844
169	0xbac72a45	-0.0015195092
170	0x3cb4efdf	0.022087036
171	0x3cdf3795	0.027248183
172	0xbc96cb81	-0.018407585
173	0x3e02b67a	0.12764922
174	0x3dffef1e	0.1249678
175	0xbc037bf4	-0.008025158
176	0x3dcecd7c	0.10097787
177	0x3b391dc3	0.00282465
178	0xbcf9c8e3	-0.030491298
179	0x3c5b9a7f	0.013403534
180	0x3d5daa13	0.054117274
181	0x3d80bf1b	0.062864505
182	0xbbccd40d	-0.0062508644
183	0x3da4bfe4	0.08044413
184	0x3d8923d1	0.066962846
185	0x3d92889f	0.07154965
186	0x3db71068	0.08938676
187	0x3d68d8b9	0.056847308
188	0x3dfe7b10	0.12425816
189	0x3da2420f	0.07922756
190	0x3d1fa1b6	0.03897258
191	0x3dfc4c00	0.12319183
192	0xbd284191	-0.041078154
193	0x3d5cc610	0.053899825
194	0x3db8b601	0.090190895
195	0x3de75270	0.112950206
196	0x3d60e41e	0.05490505
197	0x3dbdb0da	0.092622474
198	0xbb8cb7a9	-0.004294355
199	0xbc89f64f	-0.016841082
200	0x3d078cca	0.03309325
201	0x3d5e05ee	0.054204874
202	0x3dc1618f	0.09442436
203	0x3dc11b62	0.09429051
204	0x3d0397f5	0.03212734
205	0x3d93fb6b	0.072256885
206	0x3dded72e	0.10880886
207	0x3d0bf946	0.034173273
208	0xbd4a1514	-0.049336508
209	0xbc95772d	-0.018245304
210	0xbb5e800b	-0.0033950831
211	0xbd03c9cb	-0.032174867
212	0x3d6208f8	0.055184335
213	0x3dca6d80	0.09884167
214	0x3ca89da9	0.02058299
215	0x3da4efcd	0.08053551
216	0x3cea6124	0.028610773
217	0x3d1bcaaf	0.03803509
218	0x3db7c719	0.08973522
219	0x3c406b5c	0.0117443465
220	0x3c908785	0.017642746
221	0xbc914aca	-0.017735858
222	0xbd197bc2	-0.03747154
223	0x3d8275db	0.063701354
224	0x3d755946	0.05989959
225	0x3b2696f5	0.0025419567
226	0x3d18dbab	0.037318867
227	0x3c8f737e	0.017511126
228	0x3dfc471e	0.12318252
229	0x3d626168	0.055268675
230	0xbd0af9cf	-0.033929642
231	0xbd40a833	-0.047035407
232	0xbc60b2d2	-0.013714509
233	0xbc9c1e92	-0.019057546
234	0x3de479b6	0.11156027
235	0x3d83d5ae	0.064372405
236	0x3d4d9940	0.05019498
237	0x3cb37d90	0.021910459
238	0xbbae15f2	-0.0053126747
239	0x3be00560	0.0068365782
240	0x3ddbe606	0.10737233
241	0x3d97cc1d	0.074119784
242	0x3dc04d3c	0.09389731
243	0x3d875324	0.06607655
244	0xbc3d5d77	-0.011557928
245	0x3de5abb5	0.11214391
246	0x3ddfebec	0.109336704
247	0x3d38282d	0.04496019
248	0x3d8bcc12	0.06826033
249	0x3ca81f5e	0.02052277
250	0x3da84808	0.08216864
251	0xbc86120a	-0.016366024
252	0x3d07fbab	0.033198994
253	0xbc8d1dc0	-0.0172261
254	0x3d0d7349	0.034533773
255	0xbb988919	-0.004655015
