models/trained/lstm_forecaster_real.pth (torch, 873346 bytes, 11 tensors)

lstm.weight_ih_l0 f4 [512, 20]
000000 96 de 40 3d 1e 62 2e 3c c5 a5 f8 bc 22 71 3b 3d
       0.047087274 0.01064351 -0.030352483 0.04576219
000010 da 07 7c bc 25 32 90 3d 23 3e 87 3d 52 b0 9b bd
       -0.015382731 0.07040814 0.066036485 -0.0760199
000020 4a 9e 3a bd 97 0b 1a bd cd 71 a9 3d 4a a7 27 3d
       -0.045561112 -0.03760871 0.08273659 0.040931024
000030 f0 6b 41 3c 79 bf 96 3d 3c e8 9d bd 57 61 2e bd
       0.011805519 0.07360739 -0.07710311 -0.0425733
000040 03 8f 51 bc 98 37 00 bc 82 ff 59 3d 08 00 9b 3c
       -0.012790444 -0.007825755 0.053222187 0.018920913
000050 9c 8f 96 3c c0 59 5d bd 3b 62 94 3d ec 95 d5 ba
       0.018379025 -0.05404067 0.072452985 -0.001629529
000060 1a 0d 51 bc 23 9d 8f bd 02 66 ae bd 5e 9e 40 3d
       -0.012759471 -0.07012393 -0.0851555 0.04702603
000070 ac 0a 8c bd 41 24 ff bb 50 cd 8c bd e2 32 66 3d
       -0.06837973 -0.007786304 -0.06875098 0.05620087
000080 a0 e4 89 bb 66 72 78 bd 7c ed d9 3c b9 6f af bd
       -0.0042081624 -0.060655974 0.0266025 -0.08566231
000090 ca d0 56 3d 84 8c 7a bd 10 6a c2 3b 2e 01 d8 bc
       0.05244521 -0.061169162 0.005933054 -0.02636775
0000a0 c0 87 4b bb e2 58 31 bd 84 4f 62 bd e7 8e 5a bd
       -0.0031056255 -0.043297656 -0.055251613 -0.05335894
0000b0 1c 8f ac 3d 79 95 0b bc 0c 45 a6 bc 10 03 96 3c
       0.084257334 -0.008519524 -0.020296596 0.018312007
0000c0 31 f4 8d 3d ac c3 8d bd 6c 88 91 bc d4 53 d5 3c
       0.069313414 -0.06922087 -0.017765246 0.026040949
0000d0 c4 b1 04 3d cb 5a 8e 3d 30 78 93 3b a0 a0 e2 3c
       0.032396093 0.06950911 0.0045004115 0.027664483
0000e0 77 59 ab bc 84 ed 5e bd e6 ea 25 bd fc 40 31 bd
       -0.020916684 -0.05442573 -0.04050722 -0.043274865
0000f0 2a d5 33 3d 4d 81 a7 bc f8 c2 31 3d 4d 65 86 bd
       0.04390446 -0.020447398 0.043398827 -0.0656229
000100 6b ed 4d bd b5 6e 2c bd 7d 38 51 bd 06 70 5d 3d
       -0.050275248 -0.042097766 -0.051079262 0.054061912
000110 c9 02 7a 3d d9 0b 11 bc 05 34 0a bd 80 e9 19 ba
       0.061037812 -0.008852922 -0.033741016 -0.0005871281
000120 c8 b9 b7 3c c0 28 a7 3c 50 c1 de bc ea 88 40 bd
       0.022427455 0.020405173 -0.027191788 -0.04700557
000130 40 6f 81 3d cf 04 47 bd 29 b3 46 bd cf de 69 bd
       0.063200474 -0.04858857 -0.048510704 -0.057097252
000140 b9 a7 4f bd f6 9f 0f 3d f5 fd 51 3d c3 69 90 bd
       -0.050697062 0.03506466 0.051267583 -0.070514224
000150 9d b8 95 3d 4b 6c 8e bc 40 75 55 bb 40 bd 03 bc
       0.07310603 -0.017385622 -0.0032571107 -0.008040726
000160 52 12 ab bd d6 0b 8f bc 07 4b b2 3d 8a 89 57 3d
       -0.08353104 -0.017461699 0.087057166 0.0526214
000170 cb a3 ad bd 48 f4 11 3d 90 67 0a 3c 38 9f aa bc
       -0.08478507 0.035633355 0.008447543 -0.020827875
000180 22 81 4a bd 5f 51 2f bd 22 7d 21 3d c7 8e 96 3d
       -0.049439557 -0.04280221 0.039425977 0.07351451
000190 57 a2 9d 3d 25 53 38 bd d7 cd 26 3d 60 71 9a 3d
       0.076969795 -0.045001168 0.040723648 0.07541156
0001a0 93 ac 40 bc 53 ee c6 bc 84 95 c1 3c 70 3b 72 bc
       -0.011759895 -0.024283564 0.023630865 -0.014784679
0001b0 d7 0e 3c bd 0c 75 b5 bd 26 a3 20 3d 64 79 bc bc
       -0.04591259 -0.088602155 0.03921809 -0.023007102
0001c0 44 03 e9 3c 37 5b 9a 3d 7f 50 8c 3d 34 b2 23 3d
       0.02844394 0.07536929 0.06851291 0.03996487
0001d0 c7 a3 7e 3c 58 01 04 3c f7 a2 57 bd 69 e8 56 bc
       0.015541977 0.008056961 -0.05264565 -0.013116934
0001e0 15 ee 9f 3d 5d 76 a2 3d 6f b0 86 bd 11 8d 7c bc
       0.078090824 0.07932732 -0.06576621 -0.015414492
0001f0 f3 90 4f bc f3 46 82 3d 1c 5f 82 bd 09 e7 9e 3d
       -0.012668836 0.06361189 -0.06365797 0.0775891
000200 ce ef 6e 3d f8 ff 7e bd 98 92 08 3c f8 fb 83 bc
       0.058334164 -0.06225583 0.008335732 -0.016111359
000210 4b 60 86 3d 0c a6 96 3c 88 8f 3a 3c f0 bd 22 b9
       0.06561335 0.018389724 0.01138676 -0.00015520281
000220 91 7a 54 bd ba 93 73 bd e2 93 6a bd 59 3c 36 bc
       -0.0518747 -0.059467055 -0.05726994 -0.011122786
000230 c3 a8 21 bd 42 cd 6c 3d f2 04 40 bd 73 a1 8e bd
       -0.039467584 0.057812937 -0.046879716 -0.06964388
000240 db 1f 09 bd a2 5d 1d bd 13 30 91 bd d2 6a 08 bd
       -0.033477645 -0.038419373 -0.070892476 -0.033304997
000250 d8 6d cb bc 46 1c b9 3c 1c 13 e3 3c 7d 7e 1f bd
       -0.024832651 0.02259649 0.027719073 -0.038938988
000260 42 54 42 3d b8 3a 99 bc 4a 06 56 bd 0c 0e 02 bd
       0.047443636 -0.018704757 -0.05225209 -0.031751677
000270 d1 e7 8a bc b1 36 83 bd c8 a4 f8 bc b4 87 b1 3d
       -0.016956242 -0.06406916 -0.030352011 0.086684614
000280 ed 0b 23 bd 3b 1e a8 bd 0d f5 87 3d 37 a3 d3 3c
       -0.039806295 -0.08208891 0.066385366 0.025834663
000290 9d 2e 2a 3d 78 3c b3 3d 4a 45 13 3d f0 f9 93 bd
       0.04154836 0.08751768 0.03595475 -0.07225406
0002a0 48 96 81 3d ed 35 c6 bc 8c 16 e1 bc da 17 6b 3d
       0.06327492 -0.024195636 -0.027476572 0.057395793
0002b0 2c bc 23 bd a5 10 9c 3d 90 0e 11 3c e7 d3 08 3d
       -0.039974377 0.07620362 0.00885357 0.03340521
0002c0 91 a8 83 bd b7 13 b4 bd 2f d5 95 3d f1 46 37 3d
       -0.06428636 -0.08792823 0.07316052 0.04474539
0002d0 b4 52 f1 3c 0b 2f 0e bd 04 bd 04 bd 12 7c 1e bd
       0.029458381 -0.034712832 -0.03240682 -0.03869254
0002e0 ab 41 54 bc 3f a7 18 bd d4 21 f4 bc d5 b7 a2 3d
       -0.01295511 -0.037268873 -0.029801287 0.079452194
0002f0 56 99 9a 3d f8 fb 60 bb 48 2c 3f 3c b4 04 ce bc
       0.07548778 -0.0034329873 0.011668272 -0.025148727
000300 00 c5 61 bc 40 5d c0 3c 19 c7 8e 3d 46 2d dc bc
       -0.013779879 0.023481965 0.069715686 -0.026877057
000310 7c ea 9c 3d c4 7f cf 3c bf da a3 3d c6 f9 18 3d
       0.07661912 0.025329478 0.08000707 0.037347578
000320 a0 ab 31 3c 32 9d 84 bd 4c 3c 0d 3d b0 4f 2a 3d
       0.010844141 -0.06475295 0.03448133 0.041579902
000330 b7 25 8b 3d 61 20 c4 bc 56 64 96 bd 00 95 40 bc
       0.06794303 -0.02394122 -0.07343356 -0.011754274
000340 b0 a8 be ba 87 73 68 3d fc 1f 33 bd 20 1c 33 3c
       -0.0014546122 0.0567508 -0.043731675 0.0109319985
000350 74 00 c9 3c e6 67 4b 3d 3a 1d 0e 3d c1 77 43 3c
       0.024536349 0.049659632 0.03469584 0.011930407
000360 29 77 30 3d 28 6d ca bc cd 77 39 bd dc 3b a9 bd
       0.04308239 -0.024710253 -0.045280267 -0.082633704
000370 e6 b5 71 bd 95 a9 90 bd d4 04 53 3c 69 13 79 3c
       -0.059011362 -0.07063595 0.012879569 0.015202382
000380 9a 36 1c bd 3c 39 88 3d d6 ad 05 bd 32 56 94 bd
       -0.03813801 0.066515416 -0.032636486 -0.07243003
000390 87 f3 8b bd 6b b4 68 bd 68 cb 9b bc f6 c0 5d bd
       -0.068335585 -0.056812685 -0.01901789 -0.0541391
0003a0 e0 af a6 bb cd 4d b2 3d 8e 19 45 3d e8 4a 80 bd
       -0.005086884 0.087062456 0.048120074 -0.06264287
0003b0 fd 19 af 3d 30 1f 56 3c 57 63 82 3d 34 66 34 3d
       0.08549879 0.013068959 0.06366604 0.04404278
0003c0 73 30 43 bd d9 c5 af bd f0 48 15 bd d3 a9 7a 3d
       -0.047653627 -0.08582658 -0.03644651 0.061197113
0003d0 e8 dd da bc 13 fd a5 bc b2 8f 67 3d 88 9f cb bc
       -0.026717141 -0.020262277 0.056533523 -0.024856344
0003e0 31 2d fc bc cd 3e 37 3d f8 a5 99 3c 68 f2 b6 bc
       -0.030783268 0.044737626 0.018755898 -0.022332385
0003f0 e8 77 05 3d dc b4 5e bd 3e 79 76 3d 39 f5 0b bd
       0.032585055 -0.0543717 0.06017422 -0.03416941

lstm.weight_hh_l0 f4 [512, 128]
000000 e0 c7 f3 3c 50 16 1d bd c2 21 df 3c 11 51 3d 3d
       0.029758394 -0.038351357 0.027237777 0.04621989
000010 e9 78 c0 3c ec c7 51 bc a7 db 88 3d 0e 09 9c bd
       0.023495154 -0.012804013 0.0668252 -0.076189145
000020 4b ee db 3c 66 f5 a6 bd 2c e9 67 3d 22 80 ac bd
       0.026847025 -0.08152275 0.056618854 -0.08422877
000030 cd 62 93 3d e6 58 e6 3c 7f d0 0f bd 28 55 2e bd
       0.07196579 0.028118562 -0.035110947 -0.04256168
000040 5d ed 94 3d c5 09 70 3d 26 c7 5e bd 6b 65 a5 bd
       0.07271836 0.058603067 -0.05438914 -0.080759846
000050 c6 3f 2d bd 8d e1 5c ba df 3d 9b bc fb 67 f8 bb
       -0.042297147 -0.00084259437 -0.0189504 -0.007580755
000060 61 bf d9 bc cb 6c af 3d 74 c8 3f 3c 38 57 82 bd
       -0.026580514 0.085656725 0.011705507 -0.06364292
000070 82 e2 6b 3d 4d 79 0b 3d 12 b9 ae bc b4 c1 ec bc
       0.05758906 0.03405123 -0.021328483 -0.028900959
000080 38 a5 45 bb d5 c2 c2 3c 91 ba 07 3d ab e1 ad 3d
       -0.0030158293 0.023774544 0.033136908 0.084903084
000090 9c 0a b2 3d b5 61 eb 3c 7b 71 f9 3c f7 c9 22 3d
       0.0869343 0.028733114 0.03044962 0.03974339
0000a0 92 2e 95 3b 74 97 94 3d 76 c3 0d bd 09 73 6c 3b
       0.0045526708 0.0725545 -0.034610234 0.0036079308
0000b0 76 06 07 bd bf 4d 36 bd 2c 78 76 3d ef 18 7a bd
       -0.032965146 -0.04450774 0.0601732 -0.061058935
0000c0 e5 7c 02 bd 3c 3b 85 bd c5 f8 e5 3c 0b 23 a6 3d
       -0.03185739 -0.06505439 0.028072724 0.08112153
0000d0 63 48 2d bd a8 c3 03 bd 28 44 0c 3d cb d0 7d 3c
       -0.04230536 -0.032169014 0.034244686 0.015491675
0000e0 f3 cd dc 3c 51 cc 17 bc 55 24 34 3d e9 01 c7 3a
       0.026953673 -0.009265021 0.04397996 0.0015183064
0000f0 54 9e f5 3c 5b 27 0d bc 30 5b e0 bc ff 12 de 3c
       0.029982723 -0.00861534 -0.027387232 0.027108667
000100 b4 fb 7f 3d b0 3b 47 bd 34 17 39 3d a4 d4 8e bd
       0.062495902 -0.048640907 0.045188144 -0.06974152
000110 2b 6b 4d bd 66 c4 ac 3d e0 e6 a6 b9 45 3d ae 3d
       -0.05015103 0.084358975 -0.00031834003 0.0850778
000120 31 fa 42 bd 98 81 86 bd 34 9f 0e 3c c8 af 9a bd
       -0.047601882 -0.06567687 0.008704949 -0.07553059
000130 fa b9 70 bd 3a a7 8d 3d 75 43 49 3d 55 c5 09 3d
       -0.05877111 0.069166616 0.049136598 0.033635456
000140 19 40 38 3c ea 70 23 3d 1d c5 69 3d f9 6a 0c bd
       0.011245751 0.039902605 0.057072747 -0.034281705
000150 fa cd 1e bb fd 07 28 3d 1d 0c a6 bd 79 6a 63 3d
       -0.0024231658 0.041023243 -0.08107779 0.055521462
000160 06 5b 6c 3d c9 01 b3 bd 41 ea 20 bd 2c 2d d9 bc
       0.057703994 -0.08740575 -0.039285902 -0.026510797
000170 ca 9e c0 3c 7f b2 12 3d b8 60 58 3d 72 65 8e 3d
       0.023513217 0.03581476 0.052826613 0.06952943
000180 3d ef b0 bd 5c 16 84 3d ef 9d e4 bc 64 ae a1 3c
       -0.08639381 0.06449577 -0.02790734 0.019736476
000190 85 90 07 3d 75 b3 71 bd f5 2b 4a 3d 54 e9 8b 3c
       0.03309681 -0.059009034 0.049358327 0.017079033
0001a0 47 0f 2e bd cf a3 9f bd 4e 81 95 3a 79 99 82 bd
       -0.04249504 -0.07794916 0.0011406334 -0.06376929
0001b0 83 a4 60 3d d5 88 98 3d 80 e9 f4 3c c8 f6 55 bc
       0.05484439 0.07447974 0.029896498 -0.0130593255
0001c0 75 6d 5d bc 83 cd 59 bc 84 93 a4 3d 14 f9 98 3c
       -0.013514866 -0.013293627 0.08035949 0.018673457
0001d0 70 1f 95 3d b0 b5 88 bb d1 34 7c 3d dd 76 bd 3c
       0.07281387 -0.0041720495 0.061573807 0.023127967
0001e0 cd ea 1d 3d f8 27 a1 3d 57 04 8f 3d d4 07 1e b9
       0.038554 0.078689516 0.0698325 -0.0001507097
0001f0 23 6a 7a bd 6f 8b 9d 3d 78 eb 27 3c ec 9c e4 bc
       -0.061136376 0.076926105 0.010249011 -0.027906857
000200 59 e2 9f 3d 55 15 b3 bc 26 90 6b bd fe 52 80 3d
       0.07806844 -0.021860758 -0.057510518 0.062658295
000210 52 af 78 3c ac d5 c4 3c 14 70 d8 3c 2d 02 a8 bd
       0.015178518 0.024027668 0.02642063 -0.0820354
000220 4d 2c ea 3c e0 5a 4d 3d 42 cf 92 3c 44 62 9b 3d
       0.028585577 0.050135493 0.017921094 0.07587102
000230 9e 3f 81 bc 52 22 9b 3c 4e 45 57 bd 40 63 11 3d
       -0.015777405 0.018937264 -0.05255633 0.035495043
000240 9f 50 d7 3b 4a bb b3 bd d2 fb a0 3d f1 3b d4 3c
       0.00657089 -0.08775957 0.07860531 0.025907489
000250 f4 89 9f 3d b0 63 ad bd 0b 16 93 3b cd cd e0 bb
       0.07789984 -0.084662795 0.0044887117 -0.006860471
000260 a1 7e 92 3d 2d d9 83 3d b2 d8 5a bd aa 6d e7 bc
       0.07153059 0.06437907 -0.053429313 -0.028250534
000270 c2 17 4a 3d be 33 3c 3d c1 aa a7 bd 56 66 09 bd
       0.049339063 0.045947783 -0.081868656 -0.03354486
000280 42 0b ea 3c 9b 04 f9 bc 3a 4a 9a bd 7f b3 11 bd
       0.028569821 -0.030397704 -0.07533689 -0.03557157
000290 17 9c 6e 3d 78 eb 5c 3d 82 3b d9 3c 48 1a 38 bd
       0.058254328 0.053935498 0.026517633 -0.04494694
0002a0 e1 54 3a 3d b9 fc 68 bd 71 26 a5 bd 50 c0 c0 3c
       0.045491103 -0.05688164 -0.08063973 0.023529202
0002b0 cf e6 7c bd e0 7b 35 3d f7 dd a3 bc 1e 47 4c bd
       -0.061743554 0.04430759 -0.020003302 -0.04987251
0002c0 91 db 85 bc b8 da cb bc 16 07 68 3d bf e4 ab 3d
       -0.016340049 -0.024884567 0.056647383 0.08393239
0002d0 32 b0 9a bd 51 08 ee 3c cd dc 05 bd 2e ee 8c 3d
       -0.07553138 0.0290567 -0.032681275 0.06881367
0002e0 69 e2 28 bc 47 f0 4c bd 9a 53 7d bd 92 79 88 bd
       -0.010307887 -0.050033834 -0.061847307 -0.06663813
0002f0 d9 ab 87 b9 4d 99 37 bd b0 9c 29 3d ae 3e 14 3d
       -0.00025877243 -0.044823933 0.041409194 0.03619259
000300 0a 82 27 bd cf b3 cf 3c 36 7f 11 bd dd 37 97 bc
       -0.0408955 0.025354294 -0.03552171 -0.018459255
000310 95 1e 9c 3d 8b 64 84 bd 0e a4 d8 bc 0b 8e 95 bd
       0.076230206 -0.064644895 -0.026445415 -0.07302483
000320 0b 70 3e bd b8 34 88 bc 2e bc 95 3d 1c 6c 2a bb
       -0.04649357 -0.0166267 0.07311283 -0.002600438
000330 4f 11 21 3d 47 b5 8a 3d 58 86 0c bd dd 85 a9 3d
       0.039323147 0.06772857 -0.034307808 0.082774855
000340 25 6e 0f bd e8 b1 2f bd e0 af 06 3c 19 16 6b 3d
       -0.03501715 -0.042894274 0.008220643 0.05739412
000350 a9 19 99 3d fe ab 9d 3d 8d 73 27 3d 93 5f 02 3d
       0.074755974 0.076988205 0.040881682 0.031829428
000360 2c a8 dd 3c 3b 42 9e 3d c5 3a 25 3d b7 72 c3 3c
       0.02705773 0.07727476 0.04033925 0.023858411
000370 c1 3a 66 3d 92 9a 2a 3d a2 88 67 3d ef ce 25 bd
       0.056208376 0.041651316 0.056526788 -0.04048055
000380 50 0d c0 bc 1a 49 71 bd 9d 7a a1 3d 34 95 b0 3a
       -0.023443848 -0.058907606 0.07884715 0.00134722
000390 e5 f2 9e 3d 92 ee f5 3c 4f f9 31 3b 23 01 8a bd
       0.07761172 0.030020986 0.0027156656 -0.06738498
0003a0 ac 32 21 3d 15 89 3f 3d f6 23 c3 bc 34 50 8a bd
       0.039354965 0.04676159 -0.023820858 -0.06753579
0003b0 9f 15 ab bd 46 65 8a bd 38 49 c5 bb 08 dd 9a bd
       -0.08353733 -0.067575976 -0.0060206912 -0.075616896
0003c0 6d 1f 51 bd e0 1e 6c 3d a7 57 5f bd 3b d5 0e bd
       -0.05105536 0.057646632 -0.05452695 -0.03487132
0003d0 8b 41 c5 3c 92 e1 a2 bc 38 cb 20 3c af 03 8d 3d
       0.024079105 -0.019882951 0.009814076 0.06885468
0003e0 81 35 85 bd 79 08 7e bd 17 e5 7c 3d 0e af 85 3c
       -0.06504346 -0.0620198 0.061741915 0.016318824
0003f0 c0 e7 94 bd cd 3b 8b 3d eb f9 0f bd 92 96 49 3d
       -0.07270765 0.067985155 -0.03515045 0.04921586

lstm.bias_ih_l0 f4 [512]
000000 9c dd ad bd a4 f4 a9 3d af 9c ad bd 82 4d 69 3d
       -0.08489534 0.082986146 -0.08477151 0.056958683
000010 41 24 cc bc dd b2 c5 3c c6 c9 bb 3c 65 64 d1 3c
       -0.024919631 0.02413314 0.022923362 0.025560567
000020 19 f3 b7 bc c0 21 97 3d 03 df 05 bd 06 4a 30 3d
       -0.022454785 0.07379484 -0.032683384 0.043039344
000030 6f c8 8a 3c 30 d9 96 bd 7e 7e 18 3d fb c4 9b bd
       0.016941277 -0.07365644 0.037230007 -0.076059304
000040 cf 94 91 3d 66 0e a8 3d 3a 94 1d bd ce 6a 5b 3d
       0.07108461 0.08205871 -0.038471438 0.053568654
000050 a6 05 97 bd 52 2c 6d 3d df 8b 25 bd b6 5a 49 3d
       -0.07374124 0.057903595 -0.040416595 0.049158774
000060 f4 b8 65 3d 22 8b 6c 3d d2 0c a1 3c c8 ee 78 bc
       0.05608459 0.057749875 0.019659434 -0.015193649
000070 dd 63 3a bd aa 05 94 bd 17 fe ba bc 86 7b 24 bc
       -0.045505393 -0.07227643 -0.022826238 -0.010039216
000080 6a 68 cf 3b 1e af 83 3d 3c 68 25 3b 8c b5 e1 3c
       0.006329586 0.06429885 0.002523913 0.027552389
000090 a8 12 1a bd e6 e7 b3 3c 30 90 5c 3d de 72 a0 3d
       -0.03761545 0.021961164 0.053848445 0.07834409
0000a0 8a 50 99 bd 64 33 2d bd 5c 9b 83 3d 64 3b 48 3d
       -0.07486065 -0.042285338 0.06426117 0.048884764
0000b0 e7 d2 54 3d e3 a0 23 bd 72 a0 87 3d f6 ea 5f bc
       0.051958945 -0.039948355 0.066223994 -0.013666859
0000c0 49 68 e9 3c e9 82 a1 bd be 0e 7e bd 3e 40 c1 3c
       0.02849211 -0.07886297 -0.062025778 0.023590203
0000d0 24 ef 46 3d 35 4f 96 bd 47 e2 00 3d 34 b4 94 3c
       0.048567906 -0.07339326 0.031465795 0.018152334
0000e0 7a d3 16 3d ed ec 9d 3c 46 3f b3 3d 5f 55 9d bd
       0.036822774 0.019278014 0.08752303 -0.07682299
0000f0 12 6a 6c bd 36 f4 07 3c 50 b1 89 bc 37 1f cb bc
       -0.057718344 0.0082979705 -0.016808182 -0.024795158
000100 05 23 d7 3c e5 20 6f bc 79 c1 ee bc cc 95 a7 bc
       0.026261816 -0.014595245 -0.02914499 -0.02045717
000110 7d 3d da 3c 67 1e 30 bd d0 29 04 3d 05 95 07 3d
       0.026640648 -0.042997744 0.032266438 0.0331011
000120 f5 76 44 bd 56 03 f6 bc 33 e9 50 bd d7 3c ab bd
       -0.04796501 -0.030030888 -0.051003646 -0.08361214
000130 55 3b 9a bb 2a 29 ae 3c 17 36 98 bd 6a 1a 56 bb
       -0.00470678 0.021259863 -0.07432192 -0.0032669553
000140 9a 15 3b bd 86 ae 53 3b 19 0c 6c 3d e1 e2 a1 bd
       -0.045674898 0.003230007 0.057628725 -0.07904602
000150 6c 44 8f ba 7c 27 97 bd ee c2 8c 3d 80 f7 35 bd
       -0.0010930425 -0.07380578 0.068731174 -0.044425488
000160 62 d5 35 bd b3 65 06 3d 20 cf a3 3d e5 15 9c bd
       -0.04439295 0.03281183 0.0799849 -0.076213636
000170 cd b0 36 bd c5 d5 85 3d ad cc db bc e3 e9 3c bd
       -0.044602204 0.06534914 -0.026830995 -0.04612149
000180 a1 68 b2 bd 3c fa 66 3d 30 d8 ae 3d 23 41 de 3c
       -0.08711363 0.056390986 0.08537328 0.027130669
000190 da da 35 bd c3 d8 7f 3d 1e 28 2e 3d 83 c3 89 bd
       -0.044398166 0.06246258 0.042518727 -0.06726744
0001a0 5e 8d b0 bd 6d b2 62 3c c5 d7 3a 3d 89 8b 8b 3c
       -0.08620714 0.013836485 0.04561593 0.017034309
0001b0 c2 07 93 3d 2b c3 96 3d 51 70 ae bd 41 b0 9c bd
       0.07179214 0.07361444 -0.085175164 -0.07650805
0001c0 ed 28 34 bd e7 ec 43 bd 65 d1 4b bd 4a b0 85 3c
       -0.043984342 -0.04783335 -0.04976024 0.016319413
0001d0 55 a6 1b 3d f0 2c 89 bd 33 7c 8f bd 13 01 72 3d
       0.038000423 -0.06698024 -0.07006111 0.059083056
0001e0 fc 43 2e bd 04 b1 b2 bd 64 a3 d9 bc 8d 8a 0a 3d
       -0.042545304 -0.08725169 -0.026567169 0.03382354
0001f0 10 1a 62 3d 70 5a 68 3d b2 bb 9e 3d 45 ec 98 bd
       0.055200636 0.056726873 0.07750644 -0.0746694
000200 da 60 9c 3d 9f a4 38 3d c1 a5 09 bd b8 c1 8f bc
       0.076356605 0.04507887 -0.03360534 -0.017548427
000210 0c 3e 92 3d 48 cc 0b bd ee 1e bc 3b 20 fe 5c 3d
       0.07140741 -0.034130365 0.005740992 0.05395329
000220 58 70 b9 bc 08 f3 8c bd ab e1 06 bd b6 3e 78 bd
       -0.022636577 -0.06882292 -0.032930057 -0.06060668
000230 19 e2 58 bc b6 3c 6e bd b0 4b e4 3a 70 14 84 3d
       -0.0132375 -0.058163367 0.0017417576 0.06449211
000240 e2 db 8a 3c 6a f7 d1 bc 5f 4e 33 3d 69 16 7e bd
       0.016950551 -0.025630672 0.043775912 -0.06203309
000250 a9 d0 25 3b 3f cf a9 3d be c6 ac bd f9 a7 2b bd
       0.0025301373 0.08291482 -0.084363446 -0.041908238
000260 86 f6 5e bc 5a 42 92 bd a6 a6 60 3d da 21 5f bd
       -0.01360858 -0.07141562 0.05484643 -0.054475643
000270 0e c3 33 3d a4 62 70 bd 38 7e 73 3b 97 56 96 bd
       0.04388719 -0.05868782 0.003715409 -0.073407345
000280 44 66 8b 3c 87 fc a4 bd 20 49 98 39 18 7a 5e 3d
       0.017016537 -0.08055978 0.00029046182 0.054315656
000290 aa 17 90 3d c3 b8 b4 3c 50 53 3f bd f8 55 04 bd
       0.070357636 0.022060758 -0.046710312 -0.03230855
0002a0 2b 87 a4 bd 2a 7e 21 3d 2c e1 0f 3d 3e 75 bf 3b
       -0.08033594 0.03942696 0.03512685 0.005842834
0002b0 06 20 80 3d 32 af 0a bc e8 d8 a9 bc dd 55 10 bd
       0.06256108 -0.008464621 -0.020733312 -0.035238136
0002c0 6e 2b e2 bc 2b 3c 2f 3d 19 e5 38 bd a8 cf b5 bd
       -0.0276086 0.04278199 -0.04514036 -0.08877498
0002d0 8d 06 83 3d 53 1c ad 3d 72 95 98 bd 03 98 e0 bb
       0.06397734 0.08452668 -0.074503794 -0.0068540587
0002e0 7b 58 43 bb 46 0e 18 bd 36 69 81 3d 00 a0 8e 3d
       -0.0029807377 -0.037122987 0.063188955 0.06964111
0002f0 65 c6 17 bd 53 bf 8c bc a1 d6 0a 3d 3c 7a 79 b9
       -0.03705444 -0.017181074 0.033896092 -0.00023792026
000300 4b df bd 3c ac e9 2d 3d a7 8f 8a bd fd f9 35 3c
       0.023177763 0.042459175 -0.06765681 0.011106965
000310 62 16 cc 3c e4 fb 8d 3d 97 23 88 3d de 48 b1 bb
       0.024913017 0.0693281 0.06647413 -0.005410298
000320 ec f6 37 bd 28 23 a4 3d 39 d9 bb 3c 88 74 5a 3d
       -0.044913217 0.08014518 0.022930728 0.05333379
000330 ea a0 9e 3d d5 27 b7 3c 2a 22 61 bd d0 5d 87 bc
       0.07745536 0.02235786 -0.054964222 -0.016524225
000340 24 d1 8b bd f1 cc b2 bd d2 eb f7 bc d5 11 04 bc
       -0.06827 -0.08730496 -0.030263815 -0.008060892
000350 20 90 ad bd 3c 3a 60 3d df 01 4b 3d be 97 a8 3d
       -0.08474755 0.054743037 0.04956233 0.082320675
000360 c8 eb c9 bc 74 a5 92 3d 17 ab a3 3d b1 e8 f0 3c
       -0.024648562 0.07160464 0.07991617 0.02940783
000370 15 35 b5 bd f2 ed f1 bc 89 e5 0f 3d 79 95 af bd
       -0.08848015 -0.029532406 0.03513101 -0.085734315
000380 45 9f 93 bc 8e 49 3d 3d 78 dd 25 3d e3 51 85 3d
       -0.018020282 0.046212725 0.040494412 0.06509759
000390 8f 64 34 bb 66 a0 71 3d ee 48 26 bd bb 3b a3 bd
       -0.0027525758 0.05899086 -0.040596895 -0.07970377
0003a0 f1 92 9d bb d1 90 98 3c d3 89 96 bd ce af 4a bc
       -0.0048087765 0.018623741 -0.07350507 -0.012371017
0003b0 98 5c 17 bd 07 9c 94 bd 83 fd f7 bc 9d 11 3c 3d
       -0.03695354 -0.07256322 -0.030272251 0.045915235
0003c0 d6 31 22 3d 28 be 8c 3d 52 c0 8b bd f8 9c f3 ba
       0.03959831 0.06872207 -0.068237916 -0.0018586209
0003d0 ec 3b b5 3d ff a9 68 3d 38 d2 ab 3d 0f f3 50 3c
       0.0884932 0.056802746 0.083897054 0.012753262
0003e0 9e 43 2e bc 76 25 99 3d 80 c0 31 3c 59 71 b4 3d
       -0.010636238 0.07477848 0.010849118 0.08810682
0003f0 b9 1c 37 bd 80 f2 9e 3d c2 d5 17 3d f0 60 13 3d
       -0.044705126 0.07761097 0.03706909 0.03598112

lstm.bias_hh_l0 f4 [512]
000000 0b 2e aa 3d 65 66 96 bd 20 45 6b bd 11 1e a3 3d
       0.08309563 -0.07343749 -0.05743897 0.07964719
000010 1e 71 ac 3d 17 54 17 3d 9c 1b 10 bd 58 d2 94 3d
       0.08420013 0.03694543 -0.03518258 0.072666824
000020 29 5b a0 3d e9 fa 93 bc ec e9 d5 3c 22 ea 5c bd
       0.078298874 -0.01806398 0.02611252 -0.053934224
000030 06 21 dd bb aa bc 5e 3d 12 01 85 39 35 ac 24 bd
       -0.0067483215 0.054379143 0.00025368534 -0.040203292
000040 7a d0 7c 3d d5 91 ef bc aa cd 93 bd 0d c9 47 bd
       0.061722256 -0.029244343 -0.07216962 -0.04877572
000050 6a 26 61 3d af fa 94 3d 87 a5 af bd fb 5f 95 3d
       0.054968275 0.072743766 -0.08576494 0.072936974
000060 71 2f 9b bc e4 d5 97 3c 0c f2 91 3d a8 dd f7 3c
       -0.01894352 0.018534608 0.07126245 0.030257061
000070 dc 4c 9c 3d 68 87 1a bc eb 68 07 3b 0d 5c d0 3c
       0.07631847 -0.009431697 0.0020661901 0.025434518
000080 7e 85 a0 3d 85 eb 90 bd 1c 16 c6 bc 64 cd f2 bc
       0.078379616 -0.07076172 -0.024180464 -0.029638954
000090 11 48 d1 3b f7 1f 43 bd cd 76 ee 3b 72 2c 47 bd
       0.006386765 -0.047637906 0.0072773458 -0.04862637
0000a0 8b 91 be bb cd 49 68 3d 59 68 48 3c 70 82 6c 3c
       -0.00581569 0.056711007 0.01223191 0.014435396
0000b0 77 a6 75 bd 86 96 ae 3d 0a 15 30 bb 8e 78 61 bc
       -0.059973206 0.08524804 -0.002686801 -0.013761653
0000c0 17 1e 0b 3d d4 27 d0 bc 5d 47 b2 bd a3 78 29 3d
       0.033964243 -0.025409617 -0.08705018 0.041374814
0000d0 44 e3 43 3d 50 b0 8b bd f1 59 ab 3d 60 3c 19 3d
       0.04782416 -0.06820738 0.08366764 0.037411094
0000e0 b8 71 02 3d 73 dd 94 3d c8 d4 35 3d 35 f1 50 3d
       0.031846732 0.072688006 0.044392377 0.051011283
0000f0 6e 3a 7f bd 76 b9 3d 3c d8 17 48 bd ca 00 82 bd
       -0.062311582 0.011579862 -0.048850864 -0.06347807
000100 b7 e9 9a bd 20 b0 72 bd 9c c9 59 3d ec 3b 90 3d
       -0.07564109 -0.059249997 0.053170785 0.07042679
000110 c7 1b 9f 3d 07 84 8e 3c ea b1 9e bd 2c ea 54 bc
       0.0776897 0.01739694 -0.07748778 -0.012995284
000120 41 3e c7 3c 24 0c 28 bd 67 55 a4 bd 82 09 f7 3b
       0.024321677 -0.041027203 -0.08024102 0.007538975
000130 fb 96 48 3d 9a 63 b3 3c 01 f6 86 3c 57 43 80 3c
       0.04897211 0.02189808 0.016474726 0.01565711
000140 ba a8 64 bc 3a 7e 7d 3c 2c d6 6b bd 94 2c 2f bd
       -0.013956243 0.015471989 -0.057577297 -0.042767122
000150 b5 6b ec 3b 14 99 7b 3d 5b 95 2e 3d ed d7 b2 3b
       0.007214988 0.061425284 0.042622905 0.0054578693
000160 0f 7f d2 bc 76 3f 92 3c f0 47 82 3d 92 e4 8f bd
       -0.025695352 0.017852526 0.06361377 -0.07026018
000170 1d 9f 44 3d fa e9 63 bd 17 de 31 bb 56 2c be 3c
       0.048003305 -0.05564306 -0.0027140433 0.0232145
000180 be 19 2c 3d b1 50 a4 bd 7b 37 c4 3b 56 fe 91 bd
       0.042016737 -0.08023203 0.005988059 -0.07128589
000190 77 68 81 bc 70 35 2c bd a6 3a 55 3d 0d c0 19 bd
       -0.015796883 -0.04204315 0.052057885 -0.03753667
0001a0 9d 7e 55 bd 0e 7a da 3c 43 29 a9 3d 96 7a 29 bd
       -0.0521227 0.026669528 0.08259823 -0.041376673
0001b0 43 25 5c bd 8b c3 fb bb 60 3d 99 bd 9e d7 47 3d
       -0.053746473 -0.0076832226 -0.074824095 0.048789613
0001c0 3a 82 0c bc a7 fa 80 3d 29 21 a3 bd a3 58 4d bc
       -0.00857597 0.06297808 -0.07965309 -0.01253334
0001d0 0e 0f 0c bd dc 5c 3f ba b2 85 14 bc d6 1a 74 bd
       -0.034194045 -0.0007299909 -0.009065079 -0.059595905
0001e0 63 47 15 bd 16 66 66 3d b8 61 b3 3d 2a 9b 47 bd
       -0.036445033 0.0562497 0.08758873 -0.04873196
0001f0 7c 65 a0 3d 17 1c 65 3c 7f 9f 18 bd 54 45 84 39
       0.078318566 0.013983748 -0.037261482 0.00025228655
000200 95 9e ac bc 97 35 5c bd f6 04 e7 3c d6 d7 0b 3d
       -0.021071712 -0.053762045 0.028200608 0.034141384
000210 34 ca 96 3d f4 5b e4 3c 96 4b a0 bd d9 65 58 3c
       0.07362786 0.027875878 -0.07826917 0.013207876
000220 97 5c 2a bc 72 3d a4 bd 70 df 05 3d cd 42 a7 3d
       -0.010398052 -0.08019532 0.03268379 0.08167038
000230 f8 03 e5 3c 3d b4 08 3d 37 67 a0 3c 4e f1 61 bd
       0.027955994 0.033375014 0.019580467 -0.055161767
000240 08 dd 25 bd aa e4 ea bc a4 99 1b bc f5 f3 fc bc
       -0.040493995 -0.028673489 -0.00949708 -0.030878047
000250 95 af b0 bd f7 b4 9d 3d e0 9c 50 bd 18 26 8e 3d
       -0.086272396 0.07700532 -0.050930858 0.069408596
000260 19 5d 54 3d c9 b7 57 bc d4 97 37 bd a1 c1 81 bd
       0.051846597 -0.013166376 -0.04482253 -0.0633576
000270 bf 39 ad 3b 22 cc 20 bc 2a 82 24 bd b4 a2 6a 3b
       0.005286425 -0.009814294 -0.040163197 0.0035802545
000280 38 ad 94 bd 7a a2 b2 3c 3c 96 77 bd 88 2f 35 bc
       -0.07259601 0.02180599 -0.06044601 -0.011058696
000290 49 db 52 bc d5 7c a0 3d c3 99 8b 3d 35 74 82 bd
       -0.0128696645 0.0783631 0.06816437 -0.06369821
0002a0 34 33 a7 3d 46 0b 7c 3d 42 57 3f bd fa 67 45 3d
       0.08164063 0.06153419 -0.046714075 0.048194863
0002b0 24 9f ae 3d c0 3e 63 bd 8c cd b1 3c 51 ef 59 3d
       0.085264474 -0.055479765 0.021704458 0.053206746
0002c0 6c d4 13 3d f1 0e a4 bd 72 21 70 3d 55 03 a9 bc
       0.036091253 -0.08010662 0.058625646 -0.020631472
0002d0 10 4f b3 bd 77 76 88 3d 94 00 6a bd 4b 10 c4 3c
       -0.08755314 0.066632204 -0.057129458 0.02393355
0002e0 6f 93 2e bc 9e cd 27 3d 9c e3 5e 3d c0 b8 cd 3c
       -0.010655268 0.040967576 0.054416284 0.02511251
0002f0 d5 fb 18 bd 8c ee d5 bb 79 c5 82 bd 5c 1a 4a 3d
       -0.03734954 -0.006528681 -0.06385321 0.049341545
000300 ca c9 29 bc 02 f4 ae 3d eb 2e 8a bc 03 82 8c 3d
       -0.010363052 0.085426345 -0.016868075 0.06860735
000310 a1 64 98 3d e2 13 74 3c 40 72 a0 bb 64 32 b3 bd
       0.074410684 0.014897319 -0.004896432 -0.087498456
000320 f0 0b ac 3c 7f c4 04 3d 2a 18 33 3d 9e 98 a1 bd
       0.021001786 0.032413956 0.043724217 -0.078904375
000330 84 7f 40 bd fe e9 49 bc f4 a5 ae bd 08 d4 d2 3c
       -0.04699661 -0.0123238545 -0.08527747 0.02573587
000340 97 8b 90 3d 9a 64 7d bc 46 3f 5c bd bf 02 88 3d
       0.07057875 -0.01546588 -0.05377128 0.06641149
000350 d8 18 9c 3c 57 24 ab bc 5b 60 67 3d b4 35 8e 3d
       0.019054815 -0.020891352 0.056488376 0.06943837
000360 0f 35 b4 bd 2c 75 83 bd 88 ed 86 3b 0e 46 24 bd
       -0.087991826 -0.06418833 0.0041176714 -0.04010587
000370 8b bd 87 3d 5a 85 cf bc f3 fd 4e bd 45 73 37 bc
       0.06627949 -0.025332142 -0.050535154 -0.011196916
000380 e0 03 4f 3d ab 9e 9e 3d 20 87 3b 3d 7b 43 3c 3c
       0.050540805 0.07745107 0.045783162 0.011490698
000390 c9 93 10 3d 11 ae 3f bd a7 2b 28 bd 4c 60 45 bd
       0.03529719 -0.046796862 -0.041057255 -0.04818754
0003a0 ea e5 a4 3d 49 a1 f8 3c 35 57 5a bd 5b 46 a4 bd
       0.08051665 0.030350344 -0.053305823 -0.08021232
0003b0 9d 0c 53 3d 40 ce 89 bd 23 5d b4 bc 35 c6 30 3d
       0.0515257 -0.06728792 -0.022017067 0.043157775
0003c0 a9 cd ad 3d d3 03 7d 3d 70 c2 03 3d b4 05 8f bd
       0.08486492 0.061771225 0.032167852 -0.0698351
0003d0 98 d1 6a 3d fb 15 19 3d f5 99 b0 bc 3d 6f 4c bd
       0.05732879 0.037374478 -0.021557787 -0.049910773
0003e0 e5 c9 aa 3d cf 17 ca bc 90 ad 6e bc ea 5b a3 bd
       0.083392896 -0.024669556 -0.014567748 -0.079765156
0003f0 85 1e f1 3b b3 19 90 bd 32 7e 72 3d 3b bc 82 bc
       0.0073583745 -0.07036152 0.05920238 -0.015958896

lstm.weight_ih_l1 f4 [512, 128]
000000 78 c1 78 3d 26 9d ae bd b9 2d ea bc 4a 38 09 3d
       0.06073138 -0.085260674 -0.028586255 0.033500947
000010 a1 82 47 3d 29 63 98 bd 19 72 53 bd 8b bc 38 bd
       0.04870856 -0.07440788 -0.051622484 -0.045101684
000020 56 96 e2 3b 06 e1 df bc 99 46 13 bc 85 81 94 3c
       0.006914894 -0.02732898 -0.008989 0.018128166
000030 49 c3 a8 bd e2 f2 82 3b 51 42 c2 3c 8c 88 23 3d
       -0.08240373 0.003996239 0.023713263 0.039925143
000040 e6 72 58 3d 8b 22 b1 3d ec 69 ad bb 12 18 03 3a
       0.05284395 0.08649167 -0.005292168 0.000500084
000050 b7 e6 c0 bc e3 6f 02 3d ef f4 8c bd 3f 13 3f 3d
       -0.023547513 0.031844985 -0.06882655 0.046649214
000060 ba 74 9e 3d 68 a3 4e 3d 41 0f d9 bc e3 96 4c 3c
       0.077371076 0.050448805 -0.026496531 0.012487146
000070 32 e9 0b bc 12 da 71 3d a7 15 9a 3d 3a 4d 19 bb
       -0.008539485 0.05904586 0.07523661 -0.0023391978
000080 3f 8e 41 3b 5c 07 90 3d e5 81 ac bd 5f 98 f2 bc
       0.0029534248 0.07032654 -0.08423213 -0.029613672
000090 fd 8c 95 3d 1d 04 91 bd 31 e1 ea 3c 52 26 a7 bd
       0.07302282 -0.07080863 0.028671833 -0.08161606
0000a0 18 09 82 bd 90 38 79 bd cb 2e ff bc ca 37 8a 3b
       -0.06349391 -0.060844958 -0.031150242 0.0042180764
0000b0 89 dd 89 bc ae 82 31 3b ff 22 fa bc 1e 49 6d 3b
       -0.016829269 0.0027085948 -0.030534266 0.0036206911
0000c0 b6 e0 2f 3b bf 73 2e bd ae a7 47 3d 2f 47 b1 bd
       0.002683682 -0.042590853 0.048743896 -0.08656155
0000d0 21 4b 2e bd cc 18 ab bd 34 f2 85 3d c1 48 8f 3c
       -0.042552117 -0.08354339 0.06540337 0.017490746
0000e0 50 3b e9 3c fe 34 2c bc 1f 0f 64 bd 4f 25 81 3d
       0.028470665 -0.010510681 -0.055678483 0.06305944
0000f0 1f 23 6a 3d c7 43 9a 3c da e3 30 bd 66 73 c8 bb
       0.0571624 0.018831147 -0.043186046 -0.006117272
000100 98 8a 3d 3c 9d 06 99 bd 52 30 90 3d da 62 aa bd
       0.011568688 -0.074719645 0.07040466 -0.08319636
000110 f3 77 f2 3c 4e f2 61 bd 4b 26 84 3d 8b e4 47 3d
       0.029598212 -0.05516272 0.06452616 0.04880194
000120 ed ee 07 3d 8a 25 4a bd c7 4f cf bc fe e7 9c bd
       0.03318684 -0.049352206 -0.025306595 -0.076614365
000130 4b 7a 30 bc d0 29 9d bc 08 be 8c bd be 9d 0e bc
       -0.010771344 -0.019184977 -0.06872183 -0.008704601
000140 30 c4 4b 3c 69 e9 6e 3a 29 8b b2 bc 65 54 aa bd
       0.012436911 0.00091137603 -0.021794872 -0.08316878
000150 06 f2 0e bd d7 d7 42 3d ce 72 8f 3d 80 37 98 bc
       -0.03489878 0.047569122 0.07004319 -0.018581152
000160 ff c3 1a 3a e2 c4 e8 bc 7a ae 8c 3d d8 03 f5 3c
       0.00059038395 -0.028414194 0.06869216 0.02990906
000170 08 7e 81 bd 2b 90 8b bb a6 40 4e bd bb 2e 26 bd
       -0.06322867 -0.0042591295 -0.050354622 -0.04057191
000180 fb 3f 24 bd ae 4f 96 bb ab 8c 44 bd 0f 97 a5 3d
       -0.04010008 -0.0045871353 -0.047985714 0.08085453
000190 6b b3 1b 3d cc ac 98 3d 63 f0 1f bd c2 84 b7 bc
       0.038012903 0.074548334 -0.03904761 -0.022402171
0001a0 6a 5d db 3c 8e b2 32 3d e7 3a 47 3d 95 9d f3 bc
       0.026777942 0.043627314 0.048640158 -0.029738227
0001b0 8e 83 8c 3d 10 b8 df bc b5 34 86 bd e4 b0 96 3d
       0.068610296 -0.027309448 -0.06553022 0.07357958
0001c0 d4 e4 8f 3d 19 18 f8 3c 2b d1 73 bb 52 eb 24 3d
       0.070260674 0.030284928 -0.0037203531 0.04026348
0001d0 6f 93 37 3d 40 b0 14 bd 60 47 23 3d e1 18 79 bd
       0.044818338 -0.036300898 0.03986299 -0.060814742
0001e0 7a 08 63 bd 72 04 ad bc 57 bb 61 3d 97 54 f4 bc
       -0.055428006 -0.021120284 0.0551103 -0.029825492
0001f0 2c 63 5d bd b6 35 9d bb 2f 65 96 bd 2b 3e 6a bd
       -0.054049656 -0.0047976626 -0.07343518 -0.057188194
000200 13 4c 98 3d 07 74 32 3d 9a 2b f1 bc 25 e0 a0 bd
       0.07436385 0.043567684 -0.029439736 -0.07855252
000210 83 73 47 bd ba cb 80 bd f4 96 d5 3c 54 19 36 bd
       -0.048694145 -0.06288858 0.026072957 -0.04445775
000220 57 9b ca 3b 98 80 a0 3d 9b 8b 3c bc 51 a6 88 bc
       0.0061830687 0.07837027 -0.011507894 -0.016680868
000230 4c 66 c1 bc 5b de 62 bd b8 aa a2 3d 25 ad 33 3c
       -0.02360835 -0.055387836 0.07942718 0.010966574
000240 20 25 14 3d 26 ce 5e bd 23 1f 94 bd b2 fa 67 bc
       0.036168218 -0.054395817 -0.07232501 -0.0141588915
000250 aa f8 a2 bc 53 c2 68 bd 8c 00 66 bd 2e a6 34 bc
       -0.019893963 -0.056825947 -0.056152865 -0.011025948
000260 0a b3 3f bd 32 f8 8a 3c ea b2 63 3d b2 1b 62 bd
       -0.046801604 0.016964052 0.055590548 -0.055202194
000270 5d 51 3d bd 98 91 e2 3c 66 b4 41 3d 1a 1c 9c bd
       -0.046220172 0.027657315 0.047291182 -0.076225474
000280 57 a6 6a bc a9 76 85 3c 6c b0 d1 3c 9a 54 72 3d
       -0.014321885 0.016291933 0.02559682 0.059162714
000290 5f 67 b8 3c 28 87 a8 3d 15 db 23 3d 7f 98 c0 bc
       0.022510229 0.08228904 0.040003855 -0.023510216
0002a0 0a b3 09 bd 6b 0d 8c bc f8 14 80 bd 89 22 81 bd
       -0.03361801 -0.017096242 -0.062539995 -0.06305415
0002b0 c8 1f 46 3d a2 2b 35 3c ac fd d1 bc 79 c0 b2 3c
       0.048370153 0.011057766 -0.025633655 0.021820294
0002c0 84 16 75 bd af 6c ab bc f7 7f 96 bd 48 4b 20 3d
       -0.059835926 -0.020925848 -0.07348626 0.039134294
0002d0 76 1c 02 bd 11 85 a1 3b bf 70 66 3d f9 ef 44 bc
       -0.031765424 0.004929193 0.056259867 -0.012020105
0002e0 ea 90 c2 bc cc e7 02 bc e4 6d 55 bd 1d e3 79 3d
       -0.023750741 -0.007989835 -0.052106753 0.061007608
0002f0 ef 0b 2b bd 75 5f 56 bd d6 a1 07 bd 93 41 4f 3c
       -0.041759428 -0.05233713 -0.033113323 0.012649911
000300 0e fa 59 3d 51 f7 13 bd fd b0 aa bd b2 ee 25 bd
       0.053216986 -0.03612453 -0.08334539 -0.04051084
000310 96 61 a2 bd 5d 47 bd bc 49 6d 46 3d bc 31 2b bd
       -0.07928769 -0.023105318 0.048444066 -0.041795477
000320 4d 6e 19 3d 19 76 ca 3c c8 ed 69 bd 75 ec 89 3d
       0.037458707 0.024714516 -0.05711153 0.06734554
000330 cb 65 a2 3c 37 c9 31 3d 79 ae 7d bd c3 57 ab bd
       0.01982393 0.043404784 -0.06193397 -0.083663486
000340 5c 05 95 bd df e8 89 3d a1 a3 a4 3d 22 eb bb ba
       -0.07276413 0.0673387 0.08039022 -0.0014337043
000350 88 9a 3f 3d 94 e9 45 3c d4 64 46 3b af a2 14 bc
       0.04677823 0.012079615 0.00302725 -0.00907199
000360 ba 64 8f bd f8 3f 81 3c 6d 5a 99 3d b0 c7 73 3d
       -0.07001634 0.015777573 0.074879505 0.05951661
000370 f6 e6 8e bd 3c 3f b1 3b ac 11 9e bc 07 9c 14 bd
       -0.06977646 0.0054091495 -0.019295536 -0.03628161
000380 13 d9 5d 3d 9c 01 16 bd 2a aa 84 3d 18 af 0b 3c
       0.054162096 -0.03662263 0.06477769 0.008525632
000390 b0 b3 b0 bd cc f6 27 bd c9 05 ac bd 5c 28 b2 3c
       -0.08628023 -0.04100685 -0.08399541 0.02174776
0003a0 e0 ab aa b9 de c5 81 3d 86 f6 57 bd 70 34 7a bd
       -0.00032552984 0.06336568 -0.052725337 -0.061085165
0003b0 86 74 9c bd 8b 6c 43 3d 86 c5 17 3c e6 36 9f bd
       -0.076394126 0.047710937 0.009263402 -0.07774143
0003c0 4d 43 9e bd d3 5d a6 bd 0d a8 96 3c 0d 14 46 3d
       -0.0772768 -0.08123364 0.01839068 0.048358966
0003d0 c2 fd 4d bd d7 01 89 3d c2 c1 0e bd 3a fb bc ba
       -0.05029083 0.06689804 -0.03485275 -0.0014418133
0003e0 37 1e 42 bd f4 63 12 3d f7 50 3b 3d 49 4c db 3c
       -0.047392096 0.035739854 0.04573151 0.026769774
0003f0 d5 ba 1a 3d 3e 8c ab bd 43 d9 8a 3c 1f b6 af bc
       0.037775833 -0.083763584 0.016949302 -0.021449147

lstm.weight_hh_l1 f4 [512, 128]
000000 e1 be 10 bc 6a 2f a7 3d 8d 77 77 3d d3 17 c8 3c
       -0.008834572 0.081633404 0.060416747 0.024425423
000010 83 f0 82 3c 1f 0d 2f bd 84 0a 8b 3d 85 d0 6a bd
       0.015983826 -0.042737123 0.06789115 -0.057327766
000020 17 f0 07 bd de e7 ab bc 1b 60 b1 3d e6 e0 9f 3d
       -0.033187952 -0.020984586 0.08660909 0.07806568
000030 b8 f5 aa ba 71 39 94 bd a9 58 74 3c 02 3a 9c 3d
       -0.0013043201 -0.072375186 0.014913716 0.076282516
000040 01 06 6b 3d a4 0c af bd f6 ce a2 bb 1f 34 99 bd
       0.057378773 -0.08547333 -0.0049685193 -0.074806444
000050 46 57 07 bd 6f 58 7e bc 93 3c a5 bd 3c 45 de 3c
       -0.033042215 -0.015524014 -0.08068194 0.027132623
000060 77 fe ef bc 3b 5e 51 bc ee 36 0c bd 10 ba 8e 3d
       -0.029296143 -0.012778814 -0.034232073 0.06969082
000070 dd 58 52 3c f4 99 cd 3a ce 44 1b bc c8 d0 5b bd
       0.0128385695 0.001568614 -0.009476854 -0.053665906
000080 3e 34 af bd f7 dd db bb 31 7e 69 bd fd 37 1c bd
       -0.08554886 -0.00670981 -0.05700511 -0.038139332
000090 73 e4 0b 3c a4 a7 94 3d 3b 6c 32 bd 62 14 b3 bc
       0.008538353 0.072585374 -0.043560248 -0.021860305
0000a0 ca 0a 0c 3d ba 7c 8e bd 47 42 9b 3d b5 f8 96 3d
       0.034189977 -0.069573835 0.07581001 0.07371656
0000b0 f3 84 f8 3b 7e e0 8b 3c 55 ff a6 3d 88 ef a2 3d
       0.007584208 0.01707482 0.081541695 0.07955843
0000c0 62 bd 24 3d ad 04 e4 bc 29 9a 65 3d cd ce 81 bd
       0.040219672 -0.02783426 0.05605522 -0.06338272
0000d0 0c 81 37 bd a3 f3 19 bd 18 06 73 bd e1 1d 02 bd
       -0.044800803 -0.037585866 -0.059331983 -0.031766776
0000e0 d3 a9 19 bd 7e 15 0e 3d ee 27 5e 3d 98 49 a1 3d
       -0.037515473 0.034688465 0.0542373 0.07875365
0000f0 67 b2 f2 3c 31 32 af bc cd 5d 2e bd ba 62 87 bd
       0.029626084 -0.021386238 -0.042569924 -0.066106275
000100 37 c9 ce 3c 29 eb 89 bd d3 31 92 bd 0a bf 0e bd
       0.025242431 -0.06734306 -0.071384095 -0.034850158
000110 f6 d6 94 3d 40 af 4d bd de b7 09 3d 2d 81 67 bd
       0.07267563 -0.05021596 0.033622615 -0.056519676
000120 86 21 b4 bc 9b e0 44 3d b7 67 ae bc b3 de eb 3c
       -0.021988641 0.048065763 -0.02128969 0.028792715
000130 3a 8a 1b bd 77 67 0b 3d df 7b f3 3c 8e 3a c1 3c
       -0.03797362 0.03403422 0.029722152 0.023587491
000140 2d 97 3a bd d5 4b 8a 3c 3b d8 9c bc 2a b3 94 bc
       -0.04555433 0.016881863 -0.019146075 -0.018151838
000150 4d 8f 84 3d 5f 36 ab 3d 17 89 81 3c ab 22 9a 3d
       0.06472645 0.0835998 0.01581244 0.07526144
000160 ee fd 07 3d 4e ae a1 bd 26 df 96 3d 73 4d 79 3c
       0.03320115 -0.07894574 0.07366781 0.015216219
000170 44 9d 93 bd 22 aa 78 3d f6 c2 c6 bc da ec 86 3d
       -0.072077304 0.060709126 -0.024262886 0.065881446
000180 5a 05 a5 bc 21 73 57 bd 04 6e 92 3d 18 a8 4b bc
       -0.020144153 -0.05260003 0.0714989 -0.012430213
000190 4a ee a2 3d a0 0e 0a 3d ba 5f 05 bd 0e 51 1c bd
       0.07955606 0.033705354 -0.032561995 -0.038163237
0001a0 ab 52 1e 3d e0 77 bf bc 68 d7 49 bc e3 fa 57 bd
       0.038653057 -0.02337259 -0.012319423 -0.0527295
0001b0 9f 7b 84 bd d8 d9 97 3d 66 06 39 bd e0 20 00 bd
       -0.06468891 0.07414597 -0.045172118 -0.031281352
0001c0 7c f1 02 3c 3f f1 42 bd 51 ab 2d 3d 3f ce 74 3d
       0.007992145 -0.04759335 0.04239971 0.059767004
0001d0 6e e0 d1 bb c2 de 35 3b eb 13 b1 bd bd e9 63 bd
       -0.006404928 0.0027751182 -0.08646377 -0.055642832
0001e0 25 e4 87 3d 2a 94 9b 3d 91 ed 87 bd 1b ea 2c 3d
       0.06635312 0.075966194 -0.06637109 0.042215448
0001f0 87 72 9c bd 1e 18 ac bc 61 6c 88 3b 40 20 0e 3d
       -0.07639032 -0.021007594 0.0041633104 0.034698725
000200 5d 1c b1 bd 97 ea 1f bd cd 93 c5 3c 45 7c b0 3d
       -0.08647988 -0.03904208 0.024118328 0.086174525
000210 a4 88 a6 bd ef 45 8f 3d 4f 03 a9 3d dc 7e 6c bc
       -0.08131531 0.06995761 0.08252584 -0.0144345425
000220 95 b7 8c bd b8 29 a5 3c 05 d1 db bc 95 3d 91 3d
       -0.06870953 0.020161495 -0.026833067 0.07091824
000230 1e a6 c9 3c 94 da 52 3c 91 2c a6 bd 05 66 8a 3c
       0.024615344 0.012869496 -0.08113969 0.01689435
000240 db ca fb bc 87 0c 67 3c a7 e4 98 bb 5f 29 9f bd
       -0.030736377 0.014102108 -0.0046659294 -0.07771563
000250 d6 81 a0 bc db ae b0 bd f0 5b 88 3d b8 e9 82 bc
       -0.01959316 -0.08627101 0.06658161 -0.015980586
000260 c4 3d 9b bd 9d 79 80 bd 6e cd 4e 3b 16 79 a3 bd
       -0.0758014 -0.06273196 0.003155555 -0.0798208
000270 ec 08 af bb 6f d5 32 3d 73 c8 32 3d 16 12 3e bd
       -0.0053416397 0.043660577 0.043648195 -0.046403967
000280 77 7c 26 3c 7d 19 56 bd d6 48 23 bd 21 31 52 bc
       0.010161511 -0.0522704 -0.039864384 -0.012829096
000290 da 50 ff bb a0 5f 71 3d 6c 83 ea ba 34 6d 2f bd
       -0.0077916207 0.058929086 -0.001789195 -0.042828754
0002a0 fa b1 54 3d 80 9f 3d bc 18 1f 82 bd b3 89 01 bd
       0.051927544 -0.011573672 -0.06353587 -0.03162546
0002b0 87 49 51 3d 2b a6 5c bd 10 95 20 3d ef 0b ce bb
       0.05109551 -0.053869408 0.039204657 -0.0062880437
0002c0 8b 9c 2f 3d 7e 1d 9e 3c 51 39 2d 3d 42 ab 37 3d
       0.0428739 0.019301172 0.04229099 0.04484106
0002d0 f6 d0 88 3d 9a c4 2f bd 1b f1 02 3d 96 98 45 3d
       0.06680481 -0.042912103 0.031968217 0.04824122
0002e0 26 b1 96 bd 17 88 9f 3d bc c3 64 3d 53 2b 1f bd
       -0.07358007 0.07789629 0.05585073 -0.038859677
0002f0 32 d6 7a bd 0d e8 1d 3d 40 60 99 3d 8f a5 93 3d
       -0.06123943 0.03855138 0.07489061 0.07209312
000300 94 30 a7 bc 39 89 03 bd de 18 1b 3d 16 64 65 bd
       -0.020408906 -0.032113288 0.037865512 -0.056003653
000310 c3 ad 7b bd fe ff 84 bc 5b c8 31 3d 63 86 8e bd
       -0.06144501 -0.016235348 0.043403964 -0.06959226
000320 37 ca 80 bd 60 d4 72 bd 43 cd af bd c0 3b 18 bd
       -0.062885694 -0.059284568 -0.085840724 -0.037166357
000330 9a 57 ec 3a a4 5a 3d 3b be e8 5e bb e3 ae a9 3b
       0.0018031478 0.0028893137 -0.0034013237 0.005178319
000340 79 6e 79 3d 6a 35 ad 3c b3 8b 5c bd ce ca 26 3d
       0.06089637 0.021143634 -0.053844165 0.040720753
000350 43 fe f7 3c 6b 8c 45 3d 1b 1e 92 3c fb 58 b1 3c
       0.030272609 0.048229616 0.017836621 0.021648875
000360 bc 92 7f bd 84 b8 86 3d f6 a2 00 3d 2a 41 44 bd
       -0.062395796 0.06578162 0.03140541 -0.047913708
000370 69 b3 95 bd 1e 93 2b bd e6 d5 8a 3d 90 b8 0c bd
       -0.073096104 -0.04188835 0.06779079 -0.0343557
000380 73 60 29 bc d3 7b b1 3c 47 00 1f bc 65 2c b0 3d
       -0.010337937 0.02166549 -0.009704656 0.086022176
000390 35 ba c9 3c 84 01 93 3d 83 4d 90 3d e0 2e 0f bd
       0.024624923 0.071780235 0.07046034 -0.034956813
0003a0 21 6c 68 3c 85 dc 9f 3d 1b 24 8b bc ca 47 7d 3d
       0.014185936 0.07805733 -0.01698499 0.06183604
0003b0 b8 58 1e bb 5d c2 68 bd 02 f1 1a bc 6e 23 e5 bc
       -0.0024161767 -0.056825984 -0.009456875 -0.027970996
0003c0 93 c6 02 bd d0 eb ac 3d 54 15 cc 3c 4e 06 0d bd
       -0.031927656 0.08443415 0.024912514 -0.03442984
0003d0 f4 87 13 bd 85 91 b0 3d aa 43 46 3d 01 cf 75 3d
       -0.036018327 0.08621506 0.048404373 0.060011867
0003e0 94 dd 50 bd 4c 9a dc bb c5 86 99 3d e3 9d 9a bd
       -0.050992563 -0.006732261 0.074964084 -0.07549646
0003f0 e2 18 11 bd 83 60 7d 3d 7b b9 1a bd ff 01 82 bc
       -0.03542412 0.06185962 -0.037774544 -0.015870092

lstm.bias_ih_l1 f4 [512]
000000 06 54 87 3d 38 0c ea 3c bf 0f 47 3d 91 4d 17 3d
       0.06607823 0.02857028 0.048599 0.036939207
000010 96 46 08 3d d7 4b 55 3d 2d d4 b3 3b ed 02 ed bc
       0.03327044 0.05207428 0.00548794 -0.02893206
000020 0d 01 60 3d 60 9d 80 bd 37 f3 9c bc 20 30 05 bb
       0.054688502 -0.06280017 -0.019158943 -0.0020322874
000030 8d 2c 39 bd f9 82 25 3d 49 9d 8f 3d a6 44 2a 3d
       -0.045208503 0.04040811 0.07012422 0.041569375
000040 79 1a 76 bd b3 5f 67 bd 28 d8 93 bb a8 6e 3b 3c
       -0.06008384 -0.05648775 -0.004511852 0.011439957
000050 c8 75 ae bc 30 c1 27 bc 3c 3b 9f 3d 2f bd f8 3a
       -0.021296397 -0.010238931 0.0777497 0.001897728
000060 46 5b b2 3d 6b 42 b3 bd 72 14 81 3d 06 bc 22 3c
       0.08708815 -0.087529026 0.06302728 0.009932524
000070 c5 30 8e 3d 05 a5 d3 3b 81 0e 54 3a 96 86 7f 3d
       0.06942896 0.006458881 0.00080893195 0.06238421
000080 5b 87 55 bd b3 1a b3 3d 86 69 d6 3b 59 08 c5 bc
       -0.05213104 0.08745327 0.006543341 -0.024051832
000090 e3 83 82 3d 60 9d b9 3b 05 a6 85 3d 06 72 bf 3c
       0.06372812 0.0056645125 0.06525806 0.0233698
0000a0 cb 23 4f bd f5 d1 06 3d 37 37 ff 3c 52 10 60 3d
       -0.050571244 0.032915074 0.031154258 0.054703064
0000b0 d1 b0 a0 3d 7a ff 11 3c f5 ec 5d bd 63 95 8e bd
       0.07846225 0.008911008 -0.054181058 -0.06962087
0000c0 dd 1d a4 bc e6 ce 85 3d ad 91 8f 3c bc 38 0f 3d
       -0.020033771 0.06533603 0.017525518 0.034966215
0000d0 23 2f b3 bd 5c 90 a2 bd c3 d2 05 bd 62 49 81 bd
       -0.08749225 -0.079376906 -0.0326717 -0.06312825
0000e0 d1 2b 28 bd 45 d8 81 bd 78 66 b7 bc 5c 07 56 3d
       -0.04105741 -0.06340078 -0.022387728 0.052253112
0000f0 0e db b0 3c 4f d2 a2 bc 64 2c 50 3d b1 87 b2 3c
       0.021588828 -0.019875674 0.050823584 0.021793218
000100 c7 b0 a7 bd fb fb 5e 3a af 13 9b bd 93 5a bd 3c
       -0.081880145 0.0008506176 -0.07572114 0.023114478
000110 91 18 b0 3d 97 db 9d 3d 7f 35 50 bd d6 95 82 3d
       0.08598436 0.07707899 -0.050832268 0.06376235
000120 36 77 df 3c 45 68 be bc 4f a0 2d bd 83 00 20 bd
       0.027278524 -0.023243079 -0.04238921 -0.039062988
000130 81 24 45 bd 24 dd 43 3d a2 2d 78 bd 18 47 39 3d
       -0.048130516 0.047818318 -0.060590394 0.045233816
000140 d2 fc 77 bd 88 5a 8c bc 2d 9c 97 bd 97 83 d7 3c
       -0.060543843 -0.017133012 -0.07402835 0.026307864
000150 8a eb 98 3c 4b 8c cf bc 51 d0 1e ba 5f 9b c0 bc
       0.018667001 -0.025335452 -0.0006058263 -0.023511587
000160 e6 76 84 bc ee bd 9f 3c 84 f0 0d 3d c0 36 f5 3c
       -0.016169976 0.019499745 0.0346532 0.029933333
000170 cb 7c 77 bd b0 b1 04 3b 2e 3a 2c bd ea c9 94 bd
       -0.060421746 0.0020247512 -0.042047672 -0.072650746
000180 95 c1 b9 3b ae 1f 45 3d 1d c0 1a 3c 46 08 52 bc
       0.0056688287 0.048125915 0.009445217 -0.012819355
000190 cf 50 27 3d dc 0a 37 bc 03 3a a4 bb d6 d6 4a 3d
       0.04084855 -0.011172023 -0.0050117983 0.04952129
0001a0 6d b4 5a 3c b0 4b 2c 3c 2a ce 11 3d 87 78 1d 3b
       0.013348681 0.010516092 0.035597004 0.0024028139
0001b0 d6 a0 56 bd 94 7e a2 3d 85 7d 8b bd ac 04 51 bd
       -0.05239948 0.07934299 -0.0681105 -0.051029846
0001c0 3a c2 68 3d 43 e4 b2 3d c5 95 d4 bc 89 43 f0 3b
       0.056825854 0.08734944 -0.025950322 0.0073322696
0001d0 0b e8 1d bd a6 0d 96 3c f0 5b 96 3d b9 93 b2 3d
       -0.03855137 0.018317055 0.073417544 0.08719582
0001e0 ed 3f 56 3c 02 1b 4c bd ae fd 26 3d 89 5d 08 bc
       0.0130767645 -0.049830444 0.04076927 -0.008323082
0001f0 a0 66 73 bd 69 c0 b0 3d 74 40 19 bd 37 3d 12 bc
       -0.059424043 0.08630449 -0.037414983 -0.008925728
000200 d5 46 49 3d aa 79 50 bd e8 ef a1 bc bd 37 ab 3d
       0.049139816 -0.050897278 -0.019767717 0.083602406
000210 9f 50 8d 3d 89 9a 81 bd 9a 17 e0 3c 5d 22 d4 3c
       0.06900143 -0.06328303 0.027355004 0.025895292
000220 f5 17 7e bc 5a 4b 76 3b 05 95 a2 bd 4a 89 25 bd
       -0.0155086415 0.0037581534 -0.079385795 -0.040414132
000230 c3 7b 8f bd f9 e6 c4 bc ca f3 cd bc 9f d7 af bd
       -0.070060275 -0.024035918 -0.025140662 -0.08586048
000240 40 00 12 3d 63 d6 26 bd 06 c3 90 3d 5e 60 99 3d
       0.03564477 -0.0407318 0.07068448 0.07489084
000250 cb 94 82 3d 40 52 a5 3d e6 5b 13 3a 8a 4a 9f bc
       0.06376036 0.080723286 0.0005621299 -0.019444723
000260 a4 9a 9b bd f8 d1 9d 3d c9 60 08 bd 59 3c 2c bd
       -0.07597855 0.07706064 -0.033295427 -0.04204974
000270 49 12 b0 bd 37 6d 9d 3d 02 3f 3b 3d 4c b9 cc ba
       -0.085972376 0.07686847 0.045714386 -0.0015619188
000280 b2 ef b2 bd 88 ef 84 3c d1 a0 7f bd 03 df c2 bc
       -0.087371245 0.016227499 -0.062409226 -0.02378798
000290 b5 56 21 bd 0e 39 ef bc 49 1d bc bb 9e 0f 7f 3c
       -0.03938933 -0.02920201 -0.0057407958 0.015567688
0002a0 7a 44 20 3d 4c ea af bd 19 56 0f bd a3 8c af bd
       0.039127804 -0.085896105 -0.03499422 -0.08571746
0002b0 d2 ad 4d bd 99 5b 50 3d 3e 18 d1 bc 1a c2 5d ba
       -0.050214596 0.050868604 -0.025524255 -0.00084594043
0002c0 7a 7c 9c bd 30 d7 8e bd 0c 21 9e 3d 6e 6c 74 bd
       -0.076409295 -0.069746375 0.07721147 -0.05967372
0002d0 c3 c6 b1 3d 83 39 ab bd b8 8f 5a bd 34 b3 9a bd
       0.08680489 -0.08360579 -0.053359717 -0.075537115
0002e0 39 05 df bc 89 84 5c bd 42 30 90 bd bd 82 ae bc
       -0.02722417 -0.053837333 -0.070404544 -0.021302575
0002f0 67 02 44 bc 1f 26 b2 3d f1 89 b1 bd 4b de 52 3d
       -0.011963463 0.08698677 -0.08668888 0.051481526
000300 bd 65 16 3d 5c 9b 84 bd b9 41 ac 3d 37 95 b9 bc
       0.03671812 -0.06474945 0.08410973 -0.022654159
000310 ef 74 95 bd 8e 6b 3c 3d 38 cd b5 3b 8c 2c 9b 3c
       -0.07297694 0.04600101 0.0055481456 0.01894214
000320 9b 79 8d 3d d7 13 b1 bd 7c 06 cb bb 2e fe 20 bd
       0.0690796 -0.08646362 -0.0061958414 -0.039304905
000330 69 2d 8f 3b 6b 02 87 3d b4 68 b1 bc 9d d4 80 3d
       0.004369427 0.06592258 -0.021656372 0.06290553
000340 e4 14 62 3d ef 5d 89 3d b1 8e 21 bd 5c 27 ea ba
       0.055195704 0.067073695 -0.03944272 -0.0017864513
000350 42 96 a6 bb 40 4b 08 3c 2d 20 74 3d c3 47 9d bd
       -0.00508383 0.008318722 0.059600998 -0.07679703
000360 fe b7 7c 3d a7 0a 2c 3d af 68 03 bd 01 f3 70 bd
       0.061698906 0.042002346 -0.032082256 -0.058825497
000370 7e a3 b5 3d 90 be 58 bd 68 eb 59 3c a2 a5 8f bd
       0.08869074 -0.05291611 0.013300754 -0.07014014
000380 e5 3a 1d bd 9e b4 78 3d 93 ea 7c 3d 5e cd 89 ba
       -0.038386244 0.060719125 0.061747145 -0.0010513475
000390 f3 3f fc bc bc 87 49 3c 4f d3 65 bb 87 05 19 3d
       -0.030792212 0.012300428 -0.0035068577 0.037358787
0003a0 52 6e 90 3d 24 b7 84 bd 1a d2 65 3d 9c 15 15 3d
       0.07052292 -0.06480244 0.05610857 0.03639756
0003b0 8e b5 26 3d 53 0e 76 bd a7 26 ed bc 1b f7 14 bc
       0.040700488 -0.060072254 -0.028949095 -0.009092118
0003c0 b7 c8 33 bd 7c 77 50 3d f3 3f b9 bc 4d 1d ae 3c
       -0.04389259 0.0508952 -0.022613501 0.021254206
0003d0 3b 6b 8b 3c f0 b7 16 bd c8 41 76 bd 79 f0 6d bd
       0.017018905 -0.03679651 -0.060121328 -0.05809066
0003e0 92 1e ae 39 55 d4 4f bd 7d e2 3c bc d7 e2 29 bd
       0.00033210643 -0.050739605 -0.011528608 -0.041476097
0003f0 19 3d 5a 3d f8 35 eb bc 39 05 85 3d 03 1e 0c 3c
       0.053280924 -0.028712258 0.06495137 0.008552077
